results/=customtrainid1/KartAgent/KartAgent-11296137.onnx (onnx, 317696 bytes, 13 tensors)

network_body.observation_encoder.processors.0.normalizer.running_mean f4 [15]
0.0 0.40376544 0.40634063 0.15640764 0.22231102 0.0 0.39185715 0.43365365
0.14332144 0.21113203 0.0 0.41217124 0.38280934 0.16844659 0.2327526
00000000: 0000 0000 58ba ce3e e10b d03e 5329 203e
00000010: 80a5 633e 0000 0000 80a1 c83e da07 de3e
00000020: dbc2 123e ff32 583e 0000 0000 1c08 d33e
00000030: 96ff c33e 437d 2c3e b356 6e3e

network_body.observation_encoder.processors.1.normalizer.running_mean f4 [25]
0.0 0.58257383 0.3812933 0.015741222 0.22887658 0.0 0.5031025 0.4504608
0.004865973 0.26642704 0.0 0.77284145 0.16019818 0.0017242999 0.15815584 0.0
0.7210322 0.2275863 0.0013501055 0.22551847 0.0 0.69974285 0.2468846 0.0071284627
0.1683951
00000000: 0000 0000 8f23 153f e038 c33e bcf3 803c
00000010: 9f5e 6a3e 0000 0000 53cb 003f cca2 e63e
00000020: bd72 9f3b 2069 883e 0000 0000 f0d8 453f
00000030: fe0a 243e e701 e23a 9bf3 213e 0000 0000
00000040: 9195 383f 620c 693e 06f6 b03a 50ee 663e
00000050: 0000 0000 5922 333f 51cf 7c3e e195 e93b
00000060: c46f 2c3e

network_body.observation_encoder.processors.2.normalizer.running_mean f4 [3]
0.004640868 0.034066044 -0.012870494
00000000: 6c12 983b d688 0b3d c4de 52bc

network_body._body_endoder.seq_layers.0.weight f4 [256, 43]
0.061690528 0.034683727 -0.15807994 0.045004785 0.55374736 0.086824544 -0.20355612 0.046730813
0.09354202 -0.24525265 0.1662225 0.31165794 -0.034373708 -0.015304653 -0.37115154 0.2027695
-0.053836394 0.15773082 0.25990635 -0.10966768 -0.023402655 -0.14844702 0.09845571 -0.21744803
0.15504882 0.17785624 0.14047785 0.09392748 -0.24369605 -0.10128899 -0.014535101 -0.15161468
-0.10208715 0.10706933 0.025421841 -0.08579701 -0.24481344 0.115955815 -0.11547815 -0.35462072
-0.08284207 0.2528189 0.11184746 -0.27002487 -0.25033987 0.16570452 0.1436154 -0.03785875
0.3555002 0.13859534 0.119956985 0.3735974 0.06092692 -0.14306928 -0.21846886 -0.08358627
0.26017752 0.13293827 0.019969162 0.20215105 0.22133385 -0.12901536 0.22848772 0.05324391
0.13302386 -0.31851694 0.03130557 -0.3058497 0.008798422 -0.059848394 0.09660589 -0.028341057
0.26113313 0.007871373 0.032478824 -0.20661928 0.02248437 -0.023562375 0.11486871 0.06277199
-0.057322018 -0.04951774 -0.6398224 -0.570845 0.051436026 0.09501973 -0.061093323 -0.057882167
0.016410785 0.13691227 -0.29898328 -0.01980715 -0.17957996 0.014277407 -0.0057179057 -0.032250937
-0.13033843 -0.0025618535 -0.14658318 -0.13277102 0.042571 0.29760662 0.04927997 0.05393815
-0.0933766 -0.3033595 -0.22745351 0.13789925 0.0998463 -0.022225553 0.19700897 -0.13686877
-0.001886898 -0.052491646 -0.10415941 0.079446495 0.076083854 -0.10690798 0.05423745 0.44678378
-0.38976723 -0.05138982 0.23112182 0.08303126 -0.020088864 -0.03554264 -0.08436107 0.09287761
-0.13175549 0.15562055 -0.22648685 0.2099184 -0.07105056 0.15534593 0.14571616 -0.009727988
0.06587698 -0.17050181 -0.020979507 -0.16489649 -0.08378792 -0.12617004 -0.05316941 0.06945256
0.333709 -0.15015945 -0.07086436 -0.07358038 0.33129373 0.17238533 -0.16372284 -0.14781754
0.10157015 0.042545162 -0.23288433 0.12630129 0.08014541 0.20593418 0.3888737 0.0025480543
-0.025153216 -0.019381985 -0.06930244 -0.2509013 0.014290602 -0.16007356 -0.19927278 0.30269313
0.1363242 0.19493473 -0.014001258 0.44509548 -0.06893907 0.0068059736 0.22575612 -0.05380163
-0.14786577 -0.16912636 0.041684862 -0.3360676 0.1538842 0.060008056 0.32188326 0.10794667
0.17483868 -0.21350859 -0.1149751 0.1427536 0.055188548 0.17634891 -0.44435126 -0.73843676
-0.36947754 0.056547727 0.08926417 0.04346326 0.5200679 0.1846736 0.38994765 0.13157775
-0.030867526 0.2425129 -0.06416009 0.35704002 0.04039362 -0.16187695 0.19392487 -0.07300511
-0.31127712 -0.047539003 -0.15206462 -0.03168679 0.38674918 -0.32311204 0.20506924 0.3226324
0.18261492 -0.18430954 -0.1754011 0.31517074 -0.09466632 0.031936273 0.038340855 0.24577431
-0.17629819 -0.11888209 0.33336848 0.07889536 -0.049816158 0.13303535 0.06849531 0.2756862
0.25108552 -0.004106074 -0.046033528 -0.13152598 -0.29797527 0.25903332 0.0009951341 -0.27745584
-0.3160013 0.16104946 0.13413815 -0.053841237 -0.2582091 -0.14869972 0.023229934 -0.026690602
0.23710968 0.060310267 0.121160544 -0.09190184 0.049742058 -0.35349658 -0.19142641 0.050318003
00000000: 35af 7c3d 8610 0e3d b5df 21be f056 383d
00000010: 63c2 0d3f 11d1 b13d 0471 50be cf68 3f3d
00000020: f592 bf3d 8323 7bbe 3b36 2a3e a191 9f3e
00000030: 72cb 0cbd 5ec0 7abc 9307 bebe cfa2 4f3e
00000040: 8d83 5cbd 3084 213e 7212 853e 7399 e0bd
00000050: edb6 bfbc 7f02 18be 26a3 c93d b2aa 5ebe
00000060: 1ec5 1e3e f21f 363e 6dd9 0f3e 0d5d c03d
00000070: 758b 79be 9a70 cfbd a224 6ebc e140 1bbe
00000080: 1113 d1bd 2a47 db3d 7741 d03c 58b6 afbd
00000090: 60b0 7abe 3e7a ed3d cf7f ecbd d990 b5be
000000a0: 1aa9 a9bd 7b71 813e 4810 e53d b340 8abe
000000b0: 8c2c 80be 72ae 293e ea0f 133e c711 1bbd
000000c0: 1f04 b63e f0eb 0d3e 02ac f53d 2948 bf3e
000000d0: 828e 793d c180 12be 4db6 5fbe 472f abbd
000000e0: fd35 853e f820 083e 5e96 a33c af00 4f3e
000000f0: 57a5 623e 9a1c 04be aff8 693e 4916 5a3d
00000100: 6837 083e a714 a3be 453a 003d 5598 9cbe
00000110: 4227 103c 9723 75bd 4fd9 c53d 812b e8bc
00000120: 3eb3 853e eef6 003c 8408 053d 0194 53be
00000130: 2431 b83c e205 c1bc 4940 eb3d 9a8e 803d
00000140: 7eca 6abd 1dd3 4abd 67cb 23bf e622 12bf
00000150: 95ae 523d b499 c23d fe3c 7abd da15 6dbd
00000160: e96f 863c bb32 0c3e 5614 99be 9b42 a2bc
00000170: cfe3 37be c9eb 693c 455d bbbb 8f19 04bd
00000180: 7077 05be c5e4 27bb e719 16be 20f5 07be
00000190: ee5e 2e3d e55f 983e cbd9 493d 40ee 5c3d
000001a0: 3b3c bfbd f051 9bbe 93e9 68be 7635 0d3e
000001b0: 387c cc3d 5d12 b6bc b8bc 493e 5427 0cbe
000001c0: ca51 f7ba 7b01 57bd 8751 d5bd d8b4 a23d
000001d0: dad1 9b3d 92f2 dabd 1728 5e3d d8c0 e43e
000001e0: 928f c7be 227e 52bd 33ab 6c3e 4b0c aa3d
000001f0: 6791 a4bc 2995 11bd 7fc5 acbd 9e36 be3d
00000200: e9ea 06be fe5a 1f3e 2bec 67be d9f4 563e
00000210: f582 91bd 0113 1f3e 9e36 153e 2462 1fbc
00000220: 83ea 863d 0798 2ebe 37dd abbc a0da 28be
00000230: 0099 abbd b832 01be 2bc8 59bd 253d 8e3d
00000240: e8db aa3e 66c3 19be 5521 91bd 4fb1 96bd
00000250: 559f a93e c885 303e f6a6 27be 7b5d 17be
00000260: 0304 d03d d643 2e3d 3b79 6ebe 2055 013e
00000270: 4723 a43d 69e0 523e 741a c73e 42fd 263b
00000280: 1e0e cebc f8c6 9ebc 70ee 8dbd 2376 80be
00000290: 2123 6a3c 53ea 23be 2a0e 4cbe 98fa 9a3e
000002a0: 9298 0b3e f89c 473e 8865 65bc 8ee3 e33e
000002b0: ed2f 8dbd a504 df3b 9d2c 673e 195f 5cbd
000002c0: 206a 17be 762f 2dbe bfbd 2a3d 0d11 acbe
000002d0: d293 1d3e 02cb 753d e2cd a43e 2513 dd3d
000002e0: e908 333e ffa1 5abe 1178 ebbd 002e 123e
000002f0: 630d 623d cf94 343e 0282 e3be 310a 3dbf
00000300: 292c bdbe 979e 673d 22d0 b63d 8806 323d
00000310: 2b23 053f 141b 3d3e 38a7 c73e 51bc 063e
00000320: e5dd fcbc 4d55 783e 5e66 83bd f3cd b63e
00000330: c873 253d 12c3 25be 3e94 463e b483 95bd
00000340: b75f 9fbe 42b8 42bd d4b6 1bbe 02ca 01bd
00000350: fd03 c63e f16e a5be acfd 513e 1330 a53e
00000360: 68ff 3a3e a4bb 3cbe 599c 33be 0f5e a13e
00000370: 6ae0 c1bd 9ccf 023d 4d0b 1d3d 43ac 7b3e
00000380: 8387 34be 7478 f3bd 46af aa3e e493 a13d
00000390: 070c 4cbd 6b3a 083e 4547 8c3d be26 8d3e
000003a0: 488e 803e 3f8c 86bb a78d 3cbd bfae 06be
000003b0: 3790 98be 04a0 843e 296f 823a b10e 8ebe
000003c0: ecca a1be 26ea 243e 835b 093e a188 5cbd
000003d0: fc33 84be bd44 18be b44c be3c 40a6 dabc
000003e0: e1cc 723e e607 773d 0523 f83d 0837 bcbd
000003f0: 54be 4b3d 81fd b4be 4905 44be 401a 4e3d

network_body._body_endoder.seq_layers.0.bias f4 [256]
-0.12203652 0.06964051 -0.050279886 -0.12235006 0.14334597 -0.14186652 -0.21123877 -0.17093712
0.05714495 -0.041762225 0.2026355 -0.058980267 -0.004188518 -0.059532132 0.06742794 0.04318845
0.23055486 -0.02583065 0.06849539 0.019935828 -0.14147016 -0.037722904 -0.16517174 0.017831635
-0.19261199 -0.16292666 0.18122514 -0.0053705093 -0.00031862454 0.098788284 -0.13641758 0.09697451
-0.20151606 0.1740196 -0.11094818 -0.058220252 0.06822918 -0.07062192 0.10902822 0.0035188233
-0.03876855 0.11214309 -0.03530541 -0.23410194 -0.11758957 -0.07446867 0.041731935 0.27971908
-0.31331486 0.060563453 0.06098157 -0.049339354 0.029183188 0.033763498 0.14609697 0.08810013
-0.011104925 0.047488388 -0.29607117 -0.15089451 0.1353027 -0.1845087 0.02793134 -0.14567292
0.04758312 -0.17728232 0.11889903 0.18026444 -0.05181707 0.12176839 0.040464066 -0.19409466
0.104255445 -0.11671419 -0.3346968 -0.12192437 0.13131672 -0.03567507 -0.18140528 -0.015505035
-0.090533175 -0.2157957 -0.03551254 -0.05020591 -0.15198132 0.052863356 -0.114965774 0.21220234
-0.22795343 0.045315344 -0.12357693 -0.04343183 0.2821782 0.26462463 -0.122740336 -0.17997316
0.046486184 0.04997631 0.045137797 0.04822707 0.04781939 -0.030806137 -0.06881599 0.20336127
-0.16736278 -0.25132868 -0.06526465 0.13646434 0.19813627 0.040030815 -0.087382175 0.16645414
0.02817817 -0.13621147 0.11664939 -0.108240925 -0.029242633 0.07510074 -0.062718906 0.11769264
-0.012482975 0.042717107 0.02552453 0.031149285 0.09941262 0.0041654445 0.019927232 0.30463576
0.225856 0.06635127 0.23844941 0.06813244 -0.2716674 0.053197946 0.10162212 -0.051148355
-0.15659626 -0.2399791 0.22331917 -0.09202604 -0.08721386 -0.09388945 -0.1705816 -0.22798021
-0.06001483 0.1645337 -0.016280904 -0.01683689 -0.04601992 -0.051527604 -0.017778583 0.0014341938
0.0841276 -0.029219773 -0.21568339 0.026560925 0.040295985 -0.040205676 -0.041186042 0.11709936
-0.24694759 -0.26404053 -0.22189352 0.0017722157 0.1179635 -0.25013968 0.19094504 -0.045214627
0.059439275 -0.16238858 -0.19207536 -0.027618391 0.23722923 -0.012466738 -0.12106941 -0.1591424
-0.119182184 0.073099256 0.21137819 -0.16794287 0.10932598 0.06430523 -0.060230087 -0.1330423
-0.054206975 -0.07930482 -0.2518412 -0.117748976 -0.06177365 0.07521487 0.009093337 -0.07820578
0.21633062 -0.15207823 0.13015145 -0.03831257 0.22717325 0.03297905 -0.114665374 -0.15007256
-0.076795645 -0.07213696 0.03502025 -0.15324871 0.13394146 0.0777436 -0.096469924 0.25025266
0.00048008357 0.049668267 0.09776243 0.22399011 0.004321476 0.12541722 -0.00810306 -0.14239608
-0.008640871 -0.07500932 -0.068100564 -0.17392868 0.10336806 -0.039626684 -0.0008399981 -0.27222028
0.0679977 0.23162244 0.05318379 -0.12171178 -0.13787283 0.017909635 -0.082634285 0.12581813
-0.17310937 0.11119898 -0.2747904 -0.13172661 0.17138815 -0.091516174 -0.05371124 0.36319876
-0.20447017 0.026549166 -0.1857869 0.3366612 -0.17832202 -0.09245277 -0.024666 -0.026879804
0.004699786 -0.045868482 -0.034912426 -0.034981508 -0.2216227 -0.016384453 0.16380954 0.022254646
00000000: 48ee f9bd af9f 8e3d 48f2 4dbd ab92 fabd
00000010: 49c9 123e 7545 11be fa4e 58be 240a 2fbe
00000020: d310 6a3d de0e 2bbd ae7f 4f3e 4b95 71bd
00000030: d63f 89bb f7d7 73bd a917 8a3d 5fe6 303d
00000040: 9316 6c3e cd9a d3bc 5047 8c3d 7650 a33c
00000050: 8edd 10be 5583 1abd c822 29be a613 923c
00000060: 143c 45be 3fd6 26be 1593 393e 19fb afbb
00000070: 100d a7b9 8351 ca3d 0db1 0bbe 929a c63d
00000080: 3a5a 4ebe 3232 323e cd38 e3bd 5c78 6ebd
00000090: bebb 8b3d 3aa2 90bd 304a df3d 0f9c 663b
000000a0: c5cb 1ebd 47ab e53d 689c 10bd 6bb8 6fbe
000000b0: cdd2 f0bd 0883 98bd 1bef 2a3d 5737 8f3e
000000c0: ce6a a0be 6211 783d d0c7 793d 1018 4abd
000000d0: 9511 ef3c 984b 0a3d 729a 153e d76d b43d
000000e0: 6ef1 35bc 2f83 423d a496 97be 1784 1abe
000000f0: ca8c 0a3e d9ef 3cbe 44d0 e43c 482b 15be
00000100: 85e6 423d 7f89 35be 5681 f33d 3e97 383e
00000110: 233e 54bd b561 f93d a6bd 253d c0c0 46be
00000120: e183 d53d d907 efbd 615d abbe 7cb3 f9bd
00000130: e477 063e 0620 12bd 4ec2 39be d508 7ebc
00000140: 7569 b9bd 8cf9 5cbe 9975 11bd b6a4 4dbd
00000150: fea0 1bbe 3f87 583d 2d73 ebbd 924b 593e
00000160: a06c 69be 959c 393d e715 fdbd 93e5 31bd
00000170: a979 903e e17c 873e 495f fbbd e24a 38be
00000180: 4c68 3e3d f6b3 4c3d 69e2 383d c089 453d
00000190: 44de 433d 275d fcbc 66ef 8cbd f03d 503e
000001a0: 2661 2bbe 27ae 80be 79a9 85bd 4fbd 0b3e
000001b0: 3ce4 4a3e 5af7 233d 6df5 b2bd f472 2a3e
000001c0: e8d5 e63c 057b 0bbe e0e5 ee3d 6bad ddbd
000001d0: 3f8e efbc 6bce 993d c572 80bd d708 f13d
000001e0: 6485 4cbc 22f8 2e3d d218 d13c c92c ff3c
000001f0: d898 cb3d 487e 883b 6f3e a33c 38f9 9b3e
00000200: cc46 673e 2de3 873d 152c 743e 0589 8b3d
00000210: fd17 8bbe 17e6 593d 421f d03d f080 51bd
00000220: c55a 20be 15bd 75be c8ad 643e 2678 bcbd
00000230: 2e9d b2bd 1d49 c0bd f1ac 2ebe a573 69be
00000240: 1cd2 75bd 867b 283e 885f 85bc 84ed 89bc
00000250: 627f 3cbd 9c0e 53bd 64a4 91bc 8ffb bb3a
00000260: 174b ac3d 4e5e efbc 1bdc 5cbe 4c96 d93c
00000270: 670d 253d b5ae 24bd b2b2 28bd cad1 ef3d
00000280: d4df 7cbe 5230 87be 0e38 63be b149 e83a
00000290: d996 f13d 4f12 80be 1987 433e f932 39bd
000002a0: 9976 733d 3149 26be 67af 44be f73f e2bc
000002b0: 38ec 723e 4a41 4cbc 3df3 f7bd 3af6 22be
000002c0: ca15 f4bd 10b5 953d 8673 583e 37f9 2bbe
000002d0: 4de6 df3d 76b2 833d d3b3 76bd 3e3c 08be
000002e0: 2208 5ebd 916a a2bd 54f1 80be 6026 f1bd
000002f0: 5e06 7dbd 410a 9a3d 38fc 143c 5a2a a0bd
00000300: c685 5d3e 65ba 1bbe 6c46 053e a4ed 1cbd
00000310: 1ba0 683e 0a15 073d aed5 eabd 9fac 19be
00000320: 0947 9dbd 8bbc 93bd 6571 0f3d 3bed 1cbe
00000330: f327 093e 0938 9f3d 0692 c5bd 1e21 803e
00000340: bab3 fb39 f470 4b3d ab37 c83d aa5d 653e
00000350: 2b9b 8d3b 5f6d 003e b2c2 04bc 47d0 11be
00000360: 7192 0dbc 7d9e 99bd 4f78 8bbd 5c1a 32be
00000370: a2b2 d33d 974f 22bd 5133 5cba 7560 8bbe
00000380: 6142 8b3d 6f2e 6d3e 3fd7 593d 0744 f9bd
00000390: 892e 0dbe 3ab7 923c 2a3c a9bd 78d6 003e
000003a0: 9543 31be 4abc e33d 54b1 8cbe 57e3 06be
000003b0: 6080 2f3e d56c bbbd 5100 5cbd 30f5 b93e
000003c0: a160 51be a37d d93c ec3e 3ebe db5e ac3e
000003d0: 0c9a 36be e157 bdbd 5a10 cabc 0933 dcbc
000003e0: aa00 9a3b 97e0 3bbd 5500 0fbd c548 0fbd
000003f0: 10f1 62be b038 86bc b0bd 273e 604f b63c

network_body._body_endoder.seq_layers.2.weight f4 [256, 256]
0.022521304 -0.11664697 0.18195938 -0.06524908 0.13254178 -0.20078821 0.08159077 0.032435924
0.1447863 -0.19347681 -0.011932247 0.024831422 0.13320385 -0.07074276 -0.008257708 -0.08857565
-0.06948042 -0.008539523 0.328346 -0.14146923 -0.28687117 -0.3466763 -0.068188384 -0.18447551
0.0055209147 -0.1316259 -0.029425178 -0.14133272 -0.20177026 -0.053571545 -0.016750138 0.03538047
0.05204094 -0.1598783 0.0200935 -0.33108535 0.025119757 -0.02025175 -0.023529574 -0.04264679
0.17730263 0.058105495 -0.2157288 -0.05393466 -0.2157875 -0.5303479 0.12356621 -0.22974768
-0.10671896 0.003342395 -0.0643728 -0.1449381 0.06524021 0.03444952 0.14535363 -0.12935647
-0.012156154 -0.00916685 -0.041730907 0.15649429 0.049801398 0.17129563 0.27639768 -0.16362023
-0.34188342 -0.21175377 -0.109945886 0.1726895 -0.1346618 -0.18144086 -0.03430299 0.06583642
0.088426694 0.07624843 0.12078747 -0.038106002 0.11521356 0.16663125 0.021463472 -0.23634128
0.0679792 -0.0010891301 0.069511235 -0.02727594 0.18430257 -0.22219905 -0.0876439 0.13208447
0.16932972 -0.1789561 -0.13438883 0.13555162 -0.10876578 -0.1688365 0.10159513 0.006679483
-0.047004182 -0.051161144 -0.11240313 -0.32967463 -0.3961137 0.1404459 -0.45630637 -0.056175355
-0.21010846 -0.10378776 -0.06755995 0.03965682 0.062270362 -0.06455125 0.08297994 -0.044770446
-0.09977268 0.000658625 0.23702464 0.08972931 -0.41554648 -0.08547241 -0.6467559 -0.31785968
-0.098544575 -0.04455624 0.20223114 -0.20236495 -0.04969201 -0.013938986 -0.0664961 0.03552156
-0.15474717 -0.09527585 -0.05418786 -0.2295497 0.008071457 0.111329354 -0.19802757 -0.07082156
-0.25713053 0.05694432 -0.054831628 -0.15916236 0.13181381 -0.077850536 0.14870082 0.018646764
-0.015448511 -0.48903903 -0.14618011 -0.2778052 -0.16109581 -0.23916917 -0.12652072 0.049393184
-0.0022871152 -0.021763813 -0.14075789 -0.23678723 -0.31570312 -0.12758088 -0.023380294 -0.31859106
0.07918218 0.14641137 0.15022409 -0.2465974 0.2713824 -0.23856181 -0.11613521 -0.32959837
-0.41004795 0.13987316 0.1388469 -0.22425234 -0.072495066 -0.017216917 -0.14909394 0.36758223
0.11740028 -0.00093289785 -0.06559414 0.2208656 -0.004630258 -0.001942406 0.041619435 0.023603609
-0.33245328 0.06203537 -0.034870192 0.054332606 0.32516024 -0.32787356 0.046171512 0.071901485
-0.13995214 0.0021648584 -0.26377797 0.047929067 0.23400944 0.06258202 0.08023566 -0.2813084
-0.05833388 -0.09464626 -0.07867773 0.09441442 -0.08274841 -0.43107906 0.16925316 0.08982636
-0.10656418 0.25984842 -0.34106204 -0.05421083 -0.020335793 -0.025273658 -0.09565132 0.2803059
-0.25819793 -0.052140687 -0.008633163 0.22413935 0.08329398 -0.008980159 -0.14305882 -0.16430663
0.10592499 0.0012551243 0.19255024 -0.0937379 -0.12472717 -0.22521983 -0.29396033 0.17992565
-0.26311168 0.035938084 0.22337213 0.21341449 -0.22294502 0.06754154 -0.2174229 -0.004967317
0.05344801 0.2297349 0.13126276 0.14752808 -0.109678574 -0.07128175 0.068361714 0.21500793
-0.1213092 0.04739876 0.03784926 -0.10803316 -0.0010235835 -0.13608173 0.073109716 -0.14769417
00000000: 997e b83c 9be4 eebd 8f53 3a3e 4fa1 85bd
00000010: 08b9 073e 6d9b 4dbe 1019 a73d 88db 043d
00000020: dc42 143e c91e 46be 797f 43bc 446b cb3c
00000030: 9766 083e 95e1 90bd 564b 07bc 2667 b5bd
00000040: c04b 8ebd 5be9 0bbc f81c a83e 4fdd 10be
00000050: c7e0 92be 8e7f b1be 5aa6 8bbd 26e7 3cbe
00000060: cae8 b43b f1c8 06be 120d f1bc 86b9 10be
00000070: dd9c 4ebe d66d 5bbd 9637 89bc 1deb 103d
00000080: e128 553d 23b7 23be 209b a43c 0584 a9be
00000090: f3c7 cd3c ffe6 a5bc 18c1 c0bc 67ae 2ebd
000000a0: d28e 353e 0700 6e3d 03e8 5cbe 97ea 5cbd
000000b0: 66f7 5cbe e1c4 07bf 4810 fd3d fa42 6bbe
000000c0: 788f dabd 150c 5b3b e3d5 83bd a76a 14be
000000d0: a99c 853d f11a 0d3d 95d7 143e 0676 04be
000000e0: 9b2a 47bc 8e30 16bc 07ee 2abd 0a40 203e
000000f0: 8dfc 4b3d 1f68 2f3e ff83 8d3e 108c 27be
00000100: 580b afbe fbd5 58be 4f2b e1bd 84d5 303e
00000110: c8e4 09be a2cb 39be 4b81 0cbd 3fd5 863d
00000120: 0e19 b53d 2328 9c3d 6c5f f73d 0a15 1cbd
00000130: 16f5 eb3d 62a1 2a3e 2ad4 af3c 7303 72be
00000140: ae38 8b3d 24c1 8eba e85b 8e3d cb71 dfbc
00000150: d0b9 3c3e 2688 63be a57e b3bd 2741 073e
00000160: c564 2d3e 4540 37be 3a9d 09be 0bce 0a3e
00000170: 98c0 debd 7ae3 2cbe 1c11 d03d 91df da3b
00000180: 7587 40bd 598e 51bd 9d33 e6bd 1dcb a8be
00000190: 6acf cabe 0dd1 0f3e fda0 e9be 2118 66bd
000001a0: ac26 57be ad8e d4bd df5c 8abd 316f 223d
000001b0: 350f 7f3d 7233 84bd 63f1 a93d 3761 37bd
000001c0: 9e55 ccbd 93a7 2c3a 96b6 723e 00c4 b73d
000001d0: 82c2 d4be 290c afbd cb91 25bf 81be a2be
000001e0: bdd1 c9bd 9b80 36bd ae15 4f3e c238 4fbe
000001f0: d989 4bbd 5860 64bc 1b2f 88bd 0e7f 113d
00000200: 0b76 1ebe fc1f c3bd 17f4 5dbd 140f 6bbe
00000210: 253e 043c a500 e43d bdc7 4abe e50a 91bd
00000220: 9da6 83be 733e 693d 2197 60bd 75fb 22be
00000230: 33fa 063e 1a70 9fbd 0745 183e 19c1 983c
00000240: c01b 7dbc 5363 fabe 3db0 15be 7c3c 8ebe
00000250: 4df6 24be c3e8 74be a68e 01be 8250 4a3d
00000260: 6de3 15bb 064a b2bc d622 10be 5a78 72be
00000270: d7a3 a1be 90a4 02be 0888 bfbc 5e1e a3be
00000280: 442a a23d ddec 153e 58d4 193e 0784 7cbe
00000290: a2f2 8a3e 8c49 74be 4cd8 edbd 1ec1 a8be
000002a0: cef1 d1be e93a 0f3e e22d 0e3e 68a2 65be
000002b0: 4b78 94bd 7e0a 8dbc 15ac 18be bd33 bc3e
000002c0: 8f6f f03d b78d 74ba 3856 86bd 982a 623e
000002d0: 6bb9 97bb 5498 feba 2479 2a3d 5b5c c13c
000002e0: 5137 aabe cd18 7e3d 0cd4 0ebd de8b 5e3d
000002f0: 677b a63e 0bdf a7be 571e 3d3d 1641 933d
00000300: 9d4f 0fbe 4ce0 0d3b e80d 87be 4551 443d
00000310: 2ca0 6f3e 012b 803d 9852 a43d a807 90be
00000320: 82ef 6ebd e6d5 c1bd ca21 a1bd 595c c13d
00000330: 0078 a9bd 65b6 dcbe b350 2d3e e2f6 b73d
00000340: 523e dabd da0a 853e af9f aebe 2d0c 5ebd
00000350: 4097 a6bc b40a cfbc d7e4 c3bd 4184 8f3e
00000360: 8532 84be 7991 55bd 1c72 0dbc c984 653e
00000370: 0996 aa3d 8421 13bc 037e 12be ff3f 28be
00000380: 33ef d83d fc82 a43a e42b 453e a8f9 bfbd
00000390: f570 ffbd 07a0 66be f881 96be 6e3e 383e
000003a0: 93b6 86be d033 133d aabb 643e 5489 5a3e
000003b0: b34b 64be 3853 8a3d 1ca4 5ebe e0c4 a2bb
000003c0: 4dec 5a3d a03f 6b3e bf69 063e 9a11 173e
000003d0: 299f e0bd 2bfc 91bd 3a01 8c3d 0a2b 5c3e
000003e0: f570 f8bd 3425 423d d307 1b3d 7d40 ddbd
000003f0: c329 86ba 0259 0bbe 8cba 953d 243d 17be

network_body._body_endoder.seq_layers.2.bias f4 [256]
-0.20016779 -0.09763857 -0.2453704 -0.20222098 -0.03941841 -0.26800683 -0.16057979 -0.051189188
-0.06716544 -0.4421509 -0.20591271 -0.16382031 -0.23211598 -0.20793271 -0.44095415 -0.15112856
-0.31154916 -0.21934378 -0.21377395 -0.2589008 -0.082962915 -0.049229365 -0.3442469 -0.25284672
-0.21286033 -0.29889813 -0.123442434 -0.41135034 -0.26491258 -0.24363506 -0.15557648 -0.13987447
-0.32427764 -0.22773756 -0.096087866 0.061590556 -0.34156105 -0.19519153 -0.13334736 -0.25460967
-0.3496967 -0.25668144 -0.1278643 -0.23704419 -0.1758965 -0.26227197 -0.14509131 -0.14643416
0.0030803657 -0.07944423 -0.09151693 -0.29679415 -0.12121923 -0.1323874 -0.16234449 -0.0005336954
-0.19788225 -0.39507785 -0.2052024 -0.15797372 -0.1916435 -0.45914525 -0.43619305 -0.280233
-0.14030647 -0.06687513 0.011801442 -0.1682883 -0.11759454 -0.36010906 0.08521204 -0.53676784
-0.55577385 -0.34642285 -0.28550848 -0.03692478 -0.22626744 -0.15583289 -0.2362169 -0.53178126
-0.27393737 -0.13201293 -0.11925734 -0.02744712 -0.114894904 -0.08560825 -0.5133447 -0.021990413
-0.14660375 -0.06056076 -0.1626042 -0.0836892 -0.09202007 -0.2498045 -0.183943 -0.0068594646
-0.15075001 -0.37586173 -0.13453037 -0.18249065 -0.09350484 -0.28589937 -0.07345597 -0.19573118
-0.22439948 -0.16153781 -0.024760326 -0.12964742 -0.21125662 -0.05436212 -0.17908588 -0.10137429
-0.13943908 -0.18771237 -0.18612665 -0.28856954 -0.19545478 -0.11374662 -0.13591659 -0.13783091
-0.19759949 -0.017665522 -0.32570848 -0.33457172 -0.21167563 -0.39193714 -0.23788278 -0.5254107
-0.16487312 -0.28258127 -0.23902838 -0.26999167 -0.10488902 -0.1732004 -0.27840745 -0.20023648
-0.056240637 -0.22869822 -0.3402241 -0.35758823 0.08218043 -0.3028305 -0.16353929 -0.19983442
-0.13971734 -0.039408986 -0.21428865 -0.14185771 -0.21616805 -0.4707092 -0.1705067 -0.40073884
-0.42399862 -0.07253716 -0.115184374 -0.03166361 -0.14450401 -0.028759914 -0.082926825 -0.09136978
-0.07039303 -0.32924005 -0.2516653 -0.17431839 -0.14322153 -0.15007989 -0.15228592 -0.23417766
-0.26272076 -0.23478015 -0.31626633 -0.19494486 -0.26054022 -0.19760329 -0.24334346 -0.22895604
-0.36288795 -0.25316575 -0.16141334 -0.37598163 -0.13911147 -0.25205165 -0.13756844 -0.2802721
-0.2823142 -0.024122784 -0.26297933 -0.06775554 -0.077834316 -0.3172325 -0.119653806 -0.13556392
-0.3045698 -0.18922536 -0.1049252 -0.28942516 -0.18200639 -0.28515005 -0.1853063 -0.2727848
-0.114186525 -0.11507348 -0.32103232 -0.2965092 -0.2423327 -0.40153053 -0.046563793 -0.24771519
-0.22847396 -0.3137573 -0.15931627 -0.32933205 -0.18793002 -0.08705527 -0.17153348 -0.35986128
-0.37951764 -0.5059685 -0.12367448 -0.25909546 -0.14285135 -0.16209786 -0.1799494 -0.22049814
-0.28172767 -0.550925 -0.27745476 -0.2659429 -0.25019515 -0.12053706 -0.40100953 -0.24414241
-0.24639699 -0.1759343 0.031875234 -0.10280396 -0.1051067 -0.51630414 -0.21470867 -0.16237076
-0.18924874 -0.22557294 -0.24711652 -0.30812344 -0.18628477 -0.1581281 -0.3063674 -0.2876789
-0.32514364 -0.18958057 -0.18698226 0.01117712 -0.24426179 -0.1631442 -0.23624034 -0.20638406
00000000: c9f8 4cbe bbf6 c7bd 6142 7bbe 0413 4fbe
00000010: 3375 21bd 3138 89be 076f 24be c1ab 51bd
00000020: 098e 89bd 9a61 e2be c8da 52be 83c0 27be
00000030: d0af 6dbe 50ec 54be bec4 e1be 72c1 1abe
00000040: 5f83 9fbe a89b 60be 8fe7 5abe a58e 84be
00000050: 76e8 a9bd bba4 49bd 2141 b0be 2075 81be
00000060: 0ff8 59be 2d09 99be 63cf fcbd 839c d2be
00000070: 9fa2 87be 787b 79be 714f 1fbe 413b 0fbe
00000080: b807 a6be 0934 69be b7c9 c4bd 6146 7c3d
00000090: 17e1 aebe 4ae0 47be 368c 08be 335c 82be
000000a0: 720b b3be c06b 83be dcee 02be b6bb 72be
000000b0: 361e 34be 8348 86be d192 14be d6f2 15be
000000c0: f6df 493b a8b3 a2bd 3a6d bbbd 67f5 97be
000000d0: ca41 f8bd 9090 07be a23d 26be b1e7 0bba
000000e0: a5a1 4abe a547 cabe 9420 52be ddc3 21be
000000f0: 323e 44be 1615 ebbe b254 dfbe b37a 8fbe
00000100: 80ac 0fbe d4f5 88bd d65a 413c c553 2cbe
00000110: 68d5 f0bd 3760 b8be a683 ae3d 9e69 09bf
00000120: 3247 0ebf 565e b1be 2b2e 92be 703e 17bd
00000130: a7b2 67be a892 1fbe d8e2 71be d122 08bf
00000140: 8541 8cbe 662e 07be 313d f4bd c8d8 e0bc
00000150: 054e ebbd 6153 afbd 8f6a 03bf 3d25 b4bc
00000160: 4b1f 16be 8f0e 78bd b781 26be 3e65 abbd
00000170: 0575 bcbd c0cc 7fbe 8e5b 3cbe 5cc5 e0bb
00000180: 365e 1abe f370 c0be 54c2 09be d4de 3abe
00000190: 777f bfbd 6761 92be 1570 96bd c16d 48be
000001a0: fac8 65be 2b6a 25be 2bd6 cabc 4bc2 04be
000001b0: a853 58be d0aa 5ebd 4a62 37be 539d cfbd
000001c0: 1ec9 0ebe ac37 40be fc97 3ebe 63bf 93be
000001d0: 4c25 48be fdf3 e8bd b82d 0bbe 8c23 0dbe
000001e0: 8557 4abe 49b7 90bc 43c3 a6be fc4c abbe
000001f0: 7fc1 58be fcab c8be 8b97 73be 5181 06bf
00000200: 80d4 28be 7eae 90be dbc3 74be 593c 8abe
00000210: 0ed0 d6bd 725b 31be 6c8b 8ebe cb0a 4dbe
00000220: 955c 66bd de2f 6abe da31 aebe ce15 b7be
00000230: 374e a83d 990c 9bbe d876 27be 65a1 4cbe
00000240: 1012 0fbe 516b 21bd 7c6e 5bbe 2643 11be
00000250: 285b 5dbe cc00 f1be 4f99 2ebe a42d cdbe
00000260: 5916 d9be 5d8e 94bd c9e5 ebbd b4b1 01bd
00000270: dcf8 13be e999 ebbc 8ad5 a9bd 1420 bbbd
00000280: 392a 90bd 2792 a8be 46da 80be 8580 32be
00000290: aaa8 12be 8bae 19be d7f0 1bbe 45cc 6fbe
000002a0: 5683 86be 356a 70be a9ed a1be a09f 47be
000002b0: 8765 85be 8458 4abe 072f 79be 7473 6abe
000002c0: 73cc b9be f19e 81be 8a49 25be aa80 c0be
000002d0: 3d73 0ebe ea0c 81be bede 0cbe d37f 8fbe
000002e0: 7d8b 90be 259d c5bc 3aa5 86be 6bc3 8abd
000002f0: 9967 9fbd 4c6c a2be 0e0d f5bd 45d1 0abe
00000300: 93f0 9bbe 4bc4 41be 06e3 d6bd 892f 94be
00000310: e25f 3abe 30ff 91be efc0 3dbe 73aa 8bbe
00000320: a0da e9bd a5ab ebbd 595e a4be 0ed0 97be
00000330: 1026 78be 6995 cdbe adb9 3ebd 0da9 7dbe
00000340: 14f5 69be cca4 a0be ce23 23be 369e a8be
00000350: ba70 40be 094a b2bd 79a6 2fbe bd3f b8be
00000360: 2350 c2be 2787 01bf 0c49 fdbd 29a8 84be
00000370: a047 12be fbfc 25be a844 38be 44ca 61be
00000380: 9c3e 90be 6c09 0dbf 8d0e 8ebe ab29 88be
00000390: 9419 80be 22dc f6bd 1f51 cdbe 7800 7abe
000003a0: 7e4f 7cbe 1f28 34be 9b8f 023d e28a d2bd
000003b0: 2e42 d7bd 822c 04bf 97dc 5bbe 8544 26be
000003c0: 6cca 41be 98fc 66be 1d0c 7dbe 5bc2 9dbe
000003d0: 6fc1 3ebe 55ec 21be 30dc 9cbe a64a 93be
000003e0: 3a79 a6be 6921 42be 4778 3fbe 3d20 373c
000003f0: c31f 7abe 460f 27be fde8 71be 5856 53be

action_model._continuous_distribution.log_sigma f4 [1, 2]
-0.9071212 -0.85181624
00000000: 1839 68bf a110 5abf

action_model._continuous_distribution.mu.weight f4 [2, 256]
0.08776069 -0.051161412 -0.10263584 0.020633517 0.118456416 0.069157824 0.16511282 0.043030955
-0.017947212 0.011518447 0.12151398 -0.083321944 0.025840528 -0.076826885 -0.00074921036 0.14772788
0.0074498393 -0.10748765 0.08488325 0.022861155 -0.17996898 0.024418917 0.034377094 0.06299188
-0.026007488 -0.015420079 -0.08243002 -0.048965093 0.07126099 -0.05982503 0.09115339 -0.038390502
-0.037187964 -0.094578385 -0.01695223 0.014095301 0.0036689946 0.044159018 -0.096519016 -0.08840869
0.07483691 0.044711057 0.093294024 -0.12609147 -0.20696591 -0.11406598 0.036479488 0.14966954
-0.13600133 0.094840564 0.003881016 0.091903664 0.033241417 -0.109176025 0.028733823 -0.06366321
0.042680375 0.12024781 -0.024444908 0.03935349 0.06819248 0.010959042 0.055277035 -0.0076628583
-0.083791584 -0.06642606 -0.036454137 -0.13359274 0.05331256 -0.083702534 0.083875254 0.093108386
0.093604475 0.047997758 -0.09557763 -0.039184593 -0.044539507 -0.1527867 0.119931124 -0.016406054
-0.11521693 -0.021889608 0.13428167 -0.03540969 0.0019630785 -0.018543731 0.056678344 0.011007156
-0.05935775 0.09702408 0.032257665 -0.18221126 0.1711828 0.07692033 0.024399068 0.09621534
0.14589866 0.17489904 -0.11419334 -0.22957982 0.00016615097 0.02122687 -0.011518868 0.07102754
0.020171223 -0.11783835 -0.0897384 -0.06949775 0.031250667 0.13387191 -0.0003821795 -0.0015169523
-0.046703752 0.041785143 0.07367548 -0.13717629 0.0039764047 -0.12341262 0.013749937 -0.19261882
0.101170614 0.038301226 0.029270366 -0.06052108 -0.13631888 -0.01842439 0.11907556 0.07068063
0.13110629 0.035851974 0.13779218 -0.07718128 0.03131752 -0.061260227 0.08781768 0.03741473
-0.045191836 0.147044 0.1490758 -0.1653362 0.08055633 -0.14852518 0.12008827 0.021601383
-0.25590423 0.13642375 0.0988662 -0.10248344 0.023250667 0.01280916 -0.05908674 0.029004874
-0.002949958 -0.16985098 0.10077932 -0.06244095 0.008471816 0.08499695 -0.045419212 -0.00018178702
0.08599872 0.023646155 -0.023902843 0.021424389 -0.03229001 0.069743365 -0.13446884 0.0045335856
0.057770606 0.09396264 0.025099901 -0.09108205 0.048631664 -0.055634707 0.0020594052 -0.076291986
0.13822162 0.07482754 0.20502442 -0.115848154 -0.13460395 -0.050530516 0.07179797 -0.039900098
0.037872367 -0.03723079 0.14036843 0.11109671 -0.010522389 -0.01889028 0.10708616 0.097524256
-0.0068299607 0.10218497 -0.046413593 -0.094058916 -0.058822338 -0.045746706 0.007451945 -0.1704469
-0.06394108 -1.8320716e-05 0.0614229 -0.12981862 0.022603173 -0.0991236 0.040477492 -0.026769605
0.10260694 0.013774593 -0.039610207 0.05130721 0.069356866 0.05339884 0.03273061 -0.015004134
0.062052466 -0.010337483 -0.12755634 0.00051301706 0.123966575 0.058958817 -0.0058570397 0.10292219
-0.10924524 0.036296085 0.112575844 -0.07836587 -0.07969814 -0.1782346 -0.013916736 0.122702554
0.12226983 0.073161736 -0.07926709 -0.16475336 -0.18830167 -0.02902751 0.027092794 0.07972736
0.04119614 0.03957227 0.12576082 0.066968374 0.1298843 -0.09903039 0.086569905 0.028270295
0.012363922 0.060068026 0.08766703 0.12178613 0.13531025 0.006675484 0.075695984 -0.12700543
00000000: e0bb b33d a18e 51bd bd32 d2bd 9f07 a93c
00000010: 4799 f23d 9ea2 8d3d 5613 293e 3a41 303d
00000020: 0806 93bc deb7 3c3c 52dc f83d b2a4 aabd
00000030: 84af d33c 6a57 9dbd a866 44ba fa45 173e
00000040: c81d f43b 7c22 dcbd 45d7 ad3d 5147 bb3c
00000050: ca49 38be 2e0a c83c ffce 0c3d e301 813d
00000060: a80d d5bc 80a4 7cbc 12d1 a8bd 9f8f 48bd
00000070: 48f1 913d 170b 75bd a1ae ba3d 5c3f 1dbd
00000080: 6852 18bd 50b2 c1bd 67df 8abc faef 663c
00000090: 8473 703b 16e0 343d c3ab c5bd 9e0f b5bd
000000a0: 1844 993d f122 373d f010 bf3d 1f1e 01be
000000b0: dfee 53be 6d9b e9bd 846b 153d f942 193e
000000c0: ef43 0bbe c53b c23d a558 7e3b fd37 bc3d
000000d0: 2728 083d ae97 dfbd 3263 eb3c db61 82bd
000000e0: 9ed1 2e3d 7c44 f63d b040 c8bc 2031 213d
000000f0: 80a8 8b3d 8e8d 333c 2c6a 623d b718 fbbb
00000100: ec9a abbd 630a 88bd ef50 15bd 89cc 08be
00000110: 455e 5a3d 3c6c abbd cac6 ab3d 9caf be3d
00000120: b4b3 bf3d 4c99 443d 34be c3bd 0680 20bd
00000130: 0f6f 36bd 1e74 1cbe 739e f53d fd65 86bc
00000140: dbf6 ebbd d651 b3bc 2281 093e c009 11bd
00000150: fea6 003b 06e9 97bc 8d27 683d 5c57 343c
00000160: 1d21 73bd 90b4 c63d 9d20 043d 9795 3abe
00000170: 8b4a 2f3e 6888 9d3d 8ee0 c73c 8c0c c53d
00000180: 7566 153e bc18 333e 33de e9bd f916 6bbe
00000190: d038 2e39 f9e3 ad3c a2b9 3cbc e376 913d
000001a0: 1f3e a53c 3c55 f1bd c4c8 b7bd d654 8ebd
000001b0: b300 003d b815 093e 445f c8b9 79d4 c6ba
000001c0: 6f4c 3fbd e626 2b3d 2ce3 963d f177 0cbe
000001d0: 804c 823b c1bf fcbd 6a47 613c de3d 45be
000001e0: 8a32 cf3d bfe1 1c3d 68c8 ef3c f4e4 77bd
000001f0: 2d97 0bbe bfee 96bc e3dd f33d 02c1 903d
00000200: ba40 063e 85d9 123d 6519 0d3e 3811 9ebd
00000210: cd46 003d 01ec 7abd c1d9 b33d 3040 193d
00000220: 131b 39bd b492 163e 54a7 183e e54d 29be
00000230: b8fa a43d fc16 18be d7f0 f53d 62f5 b03c
00000240: e105 83be abb2 0b3e 5d7a ca3d d6e2 d1bd
00000250: 2f78 be3c 83dd 513c f004 72bd a19b ed3c
00000260: 1554 41bb 6aed 2dbe 6365 ce3d 15c2 7fbd
00000270: 5fcd 0a3c e212 ae3d 7f09 3abd 159e 3eb9
00000280: 1920 b03d 95b5 c13c e5cf c3bc 3382 af3c
00000290: 8842 04bd 9cd5 8e3d 33b2 09be 798e 943b
000002a0: dfa0 6c3d 7c6f c03d 4f9e cd3c 3a89 babd
000002b0: ff31 473d 38e1 63bd 16f7 063b f93e 9cbd
000002c0: f889 0d3e 2e3f 993d ecf1 513e cc41 edbd
000002d0: 9ed5 09be 16f9 4ebd d00a 933d 496e 23bd
000002e0: 0e20 1b3d 507f 18bd bebc 0f3e ac86 e33d
000002f0: 1966 2cbc cabf 9abc fd4f db3d ccba c73d
00000300: ddcd dfbb 5b46 d13d 2e1c 3ebd f6a1 c0bd
00000310: b1ef 70bd e660 3bbd 722f f43b a289 2ebe
00000320: 8af3 82bd 70af 99b7 9496 7b3d 2cef 04be
00000330: 4a2a b93c 5001 cbbd bacb 253d ee4b dbbc
00000340: 9623 d23d d5ae 613c 503e 22bd 8227 523d
00000350: f90a 8e3d beb8 5a3d 8810 063d e6d3 75bc
00000360: ba2a 7e3d 8c5e 29bc 219e 02be fe7b 063a
00000370: 30e2 fd3d cd7e 713d 69ec bfbb dfc8 d23d
00000380: f8bb dfbd 34ab 143d 2a8e e63d 497e a0bd
00000390: c738 a3bd 2283 36be 0503 64bc 7a4b fb3d
000003a0: 9b68 fa3d d2d5 953d c956 a2bd 1bb5 28be
000003b0: 27d2 40be 1acb edbc b5f1 dd3c 1948 a33d
000003c0: 49bd 283d 8816 223d 72c7 003e b726 893d
000003d0: 6400 053e 72d0 cabd 904b b13d 1b97 e73c
000003e0: 0c92 4a3c e409 763d c68a b33d 026b f93d
000003f0: c58e 0a3e 05be da3b 7f06 9b3d b60d 02be

action_model._continuous_distribution.mu.bias f4 [2]
-0.0037662569 0.1274956
00000000: 4ed3 76bb 358e 023e

onnx::Div_71 f4 [15]
0.0002975329 0.4906517 0.49115023 0.36324134 0.3460279 0.0002975329 0.48816356 0.4955792
0.35039964 0.33450174 0.0002975329 0.49222678 0.48607174 0.37425643 0.3559521
00000000: 31fe 9b39 b336 fb3e 0b78 fb3e c5fa b93e
00000010: 922a b13e 31fe 9b39 93f0 f93e 8fbc fd3e
00000020: 9567 b33e d043 ab3e 31fe 9b39 2605 fc3e
00000030: 65de f83e 8a9e bf3e 5b3f b63e

onnx::Div_74 f4 [25]
0.0002975329 0.49313408 0.4857038 0.12446908 0.19304116 0.0002975329 0.4999987 0.49754044
0.06958659 0.16864775 0.0002975329 0.4189968 0.36679012 0.041485444 0.15030494 0.0002975329
0.44849092 0.4192737 0.036717568 0.13210231 0.0002975329 0.45837054 0.43119884 0.0841294
0.17075092
00000000: 31fe 9b39 127c fc3e 2bae f83e a5e9 fe3d
00000010: 95ac 453e 31fe 9b39 d4ff ff3e 9fbd fe3e
00000020: 6a83 8e3d ffb1 2c3e 31fe 9b39 c086 d63e
00000030: eacb bb3e a4ec 293d 8ae9 193e 31fe 9b39
00000040: 9aa0 e53e 0bab d63e 2965 163d d445 073e
00000050: 31fe 9b39 8baf ea3e 18c6 dc3e 094c ac3d
00000060: 54d9 2e3e

onnx::Div_77 f4 [3]
0.4572239 0.033398394 0.5556881
00000000: 4019 ea3e c1cc 083d 9341 0e3f
