results/=customtrainid1/KartAgent/KartAgent-11219502.onnx (onnx, 317696 bytes, 13 tensors)

network_body.observation_encoder.processors.0.normalizer.running_mean f4 [15]
0	0x00000000	0.0
1	0x3ecedf9d	0.40404978
2	0x3ecfba00	0.40571594
3	0x3e205cff	0.15660475
4	0x3e63d353	0.22248583
5	0x00000000	0.0
6	0x3ec8bc39	0.39206102
7	0x3eddb9ff	0.43305966
8	0x3e13078b	0.14358346
9	0x3e587029	0.21136536
10	0x00000000	0.0
11	0x3ed33132	0.4124847
12	0x3ec3af48	0.38219666
13	0x3e2ca4ba	0.16859713
14	0x3e6e7a0a	0.23288742

network_body.observation_encoder.processors.1.normalizer.running_mean f4 [25]
0	0x00000000	0.0
1	0x3f154f7e	0.5832442
2	0x3ec2dd2b	0.38059363
3	0x3c802c2b	0.01564606
4	0x3e6a19a7	0.22861348
5	0x00000000	0.0
6	0x3f00bd37	0.5028872
7	0x3ee6ce5a	0.4507931
8	0x3ba0898f	0.0048992108
9	0x3e8862aa	0.26637775
10	0x00000000	0.0
11	0x3f45c02e	0.7724637
12	0x3e24903c	0.16070646
13	0x3ae38d1d	0.0017360781
14	0x3e222b76	0.15836892
15	0x00000000	0.0
16	0x3f38a0d7	0.7212042
17	0x3e68df35	0.22741397
18	0x3ab1b9e6	0.001355943
19	0x3e66c7cf	0.22537158
20	0x00000000	0.0
21	0x3f32ee95	0.698953
22	0x3e7db0ec	0.24774522
23	0x3beb1a1c	0.0071747433
24	0x3e2caaba	0.16862002

network_body.observation_encoder.processors.2.normalizer.running_mean f4 [3]
0	0x3b98f634	0.0046680216
1	0x3d0b9f52	0.034087487
2	0xbc5081d1	-0.012726263

network_body._body_endoder.seq_layers.0.weight f4 [256, 43]
0	0x3d7caf35	0.061690528
1	0x3d1d0ca9	0.03834215
2	0xbe266499	-0.16249312
3	0x3d460c22	0.048351415
4	0x3f0e4cf6	0.55586183
5	0x3db1d111	0.086824544
6	0xbe4b9581	-0.1988125
7	0x3d1e2818	0.038612455
8	0x3dc3e1ac	0.09564528
9	0xbe79aba8	-0.24381888
10	0x3e2a363b	0.1662225
11	0x3ea4c365	0.32180324
12	0xbd35286b	-0.044228
13	0xbc42d42d	-0.011891407
14	0xbebced6c	-0.3689989
15	0x3e4fa2cf	0.2027695
16	0xbd50624a	-0.050874986
17	0x3e1ee822	0.15518239
18	0x3e8a4b53	0.27010593
19	0xbde4fd19	-0.11181087
20	0xbcbfb6ed	-0.023402655
21	0xbe19d5d6	-0.15022978
22	0x3dc56554	0.096384674
23	0xbe609b42	-0.21934226
24	0x3e22f8e1	0.15915252
25	0x3e361ff2	0.17785624
26	0x3e109714	0.14120132
27	0x3db8462c	0.08997759
28	0xbe7b7c1c	-0.24559063
29	0xbddb0123	-0.10693576
30	0xbc6e24a2	-0.014535101
31	0xbe1c3fd6	-0.15258726
32	0xbdd51416	-0.10404222
33	0x3ddb5afe	0.10710715
34	0x3cfdc841	0.030979278
35	0xbdafb658	-0.08579701
36	0xbe800af3	-0.25008354
37	0x3df31bb6	0.1187052
38	0xbdf1fd7a	-0.11815925
39	0xbeb37b5d	-0.35055056
40	0xbdbb5244	-0.0914655
41	0x3e7f15c0	0.2491064
42	0x3df299a3	0.1184571
43	0xbe8a40b3	-0.27002487
44	0xbe82c111	-0.25537923
45	0x3e2a4d3b	0.16631024
46	0x3e19de44	0.15026194
47	0xbcf7b169	-0.030235963
48	0x3eb6041f	0.3555002
49	0x3e0ca9cc	0.13736647
50	0x3df42788	0.119216025
51	0x3ec2262b	0.37919745
52	0x3d8ca055	0.068665184
53	0xbe1280c1	-0.14306928
54	0xbe5e044b	-0.21681325
55	0xbdb0d39f	-0.086341135
56	0x3e86c7c1	0.26324275
57	0x3e0d0dac	0.13774747
58	0x3ca3965e	0.019969162
59	0x3e4e6a9b	0.20157854
60	0x3e643aee	0.22288105
61	0xbe0f30ba	-0.13983431
62	0x3e6813da	0.22663823
63	0x3d5a1649	0.05324391
64	0x3e04004c	0.12890738
65	0xbea0a7ca	-0.31378013
66	0x3d041736	0.0322487
67	0xbe9bf61a	-0.30461198
68	0x3c102742	0.008798422
69	0xbd7f85d0	-0.062383473
70	0x3dd0f5e6	0.102031514
71	0xbce16fec	-0.027519189
72	0x3e8460f3	0.25855216
73	0x3c00f6ee	0.007871373
74	0x3d213ae4	0.039362803
75	0xbe5c7f3b	-0.2153291
76	0x3cd6e383	0.026231533
77	0xbc72ae7d	-0.014812109
78	0x3deb4049	0.11486871
79	0x3d858298	0.065190494
80	0xbd70266a	-0.058630385
81	0xbd49a5f4	-0.04923053
82	0xbf2522e7	-0.6450638
83	0xbf134412	-0.5752574
84	0x3d6b8f01	0.057509426
85	0x3db93e52	0.0904509
86	0xbd7a3cfe	-0.061093323
87	0xbd6d4bc2	-0.057933576
88	0x3c8b0c1e	0.016973551
89	0x3e0a7369	0.13520588
90	0xbe9a6621	-0.30156043
91	0xbca2429b	-0.01980715
92	0xbe365127	-0.17804395
93	0x3c6b04a8	0.014344372
94	0xbc00cd1c	-0.007861402
95	0xbd0db82f	-0.03459948
96	0xbe057770	-0.13033843
97	0xbb637d1d	-0.0034712024
98	0xbe14b48c	-0.14521998
99	0xbe078c81	-0.13237192
100	0x3d2cff9f	0.042235967
101	0x3e985fe5	0.29760662
102	0x3d48dfe4	0.049041644
103	0x3d5c2df9	0.05375478
104	0xbdc56768	-0.09638864
105	0xbe9afb17	-0.3026969
106	0xbe68e993	-0.22745351
107	0x3e12980e	0.14315817
108	0x3dc1dfdd	0.09466527
109	0xbcd5c4d4	-0.026094832
110	0x3e4bfc9c	0.19920582
111	0xbe0c2754	-0.13686877
112	0xba9f0022	-0.0012130777
113	0xbd5e014d	-0.05420046
114	0xbddd3102	-0.10800363
115	0x3da35766	0.07975654
116	0x3d9bd1da	0.076083854
117	0xbdd2866c	-0.10279545
118	0x3d57203e	0.052520983
119	0x3ee4b217	0.44667122
120	0xbecb5bc0	-0.39718437
121	0xbd527e22	-0.05138982
122	0x3e6a29de	0.22867534
123	0x3db0d7b2	0.086348906
124	0xbccbe309	-0.024888532
125	0xbce5cb7c	-0.02805113
126	0xbdbea241	-0.09308291
127	0x3dd51ed8	0.104062736
128	0xbe092826	-0.13394222
129	0x3e1f5afe	0.15562055
130	0xbe67733b	-0.2260255
131	0x3e57e58f	0.21083663
132	0xbd97c9c6	-0.07411532
133	0x3e1c81e5	0.15283926
134	0x3e15369e	0.14571616
135	0xbc416d1a	-0.011805797
136	0x3d8ef567	0.069804005
137	0xbe300c94	-0.17192298
138	0xbcb66b23	-0.022267884
139	0xbe28daa0	-0.16489649
140	0xbda2e1fb	-0.079532586
141	0xbe02c812	-0.12771633
142	0xbd5c03a3	-0.053714406
143	0x3d8d4985	0.06898788
144	0x3eaadbe8	0.333709
145	0xbe1ed5ef	-0.15511297
146	0xbd87976b	-0.066206776
147	0xbda52b41	-0.08064891
148	0x3eab921a	0.33509904
149	0x3e3085c8	0.17238533
150	0xbe25368f	-0.16134094
151	0xbe1ac556	-0.1511434
152	0x3dc93fa9	0.09826595
153	0x3d23a527	0.039952423
154	0xbe6e793b	-0.23288433
155	0x3e022d6c	0.1271264
156	0x3d9e4659	0.077282615
157	0x3e4fa6f5	0.20278533
158	0x3ec9fad8	0.3944919
159	0x3b26fd42	0.0025480543
160	0xbcb52b7e	-0.022115465
161	0xbcd7db9d	-0.026349837
162	0xbd8cc1ad	-0.06872878
163	0xbe817063	-0.25281057
164	0x3c6a2321	0.014290602
165	0xbe237edf	-0.15966366
166	0xbe4d2459	-0.20033397
167	0x3e99e5d3	0.30058154
168	0x3e139d86	0.14415559
169	0x3e45bdbb	0.19310658
170	0xbc785230	-0.015156314
171	0x3ee0792a	0.4384244
172	0xbd8d2fed	-0.06893907
173	0x3c03b36b	0.008038382
174	0x3e66e185	0.22546966
175	0xbd593acd	-0.053034592
176	0xbe16e075	-0.14734061
177	0xbe2d2f76	-0.16912636
178	0x3d2ae3a6	0.04172101
179	0xbeabe050	-0.33569574
180	0x3e1ee279	0.1551608
181	0x3d77071f	0.060309526
182	0x3ea4cde2	0.32188326
183	0x3dd7342f	0.10508
184	0x3e345fa2	0.17614606
185	0xbe5940b7	-0.21216093
186	0xbdea2877	-0.11433499
187	0x3e122e00	0.1427536
188	0x3d671e8c	0.056425616
189	0x3e33398e	0.17502424
190	0xbee39058	-0.44446063
191	0xbf3d4a2c	-0.739413
192	0xbebd2c29	-0.36947754
193	0x3d5f405c	0.054504737
194	0x3dbbf993	0.09178462
195	0x3d32ba52	0.04363472
196	0x3f03c0d3	0.514661
197	0x3e3d1b14	0.1846736
198	0x3ec907f7	0.3926389
199	0x3e053127	0.13007031
200	0xbcfb7742	-0.030696515
201	0x3e798af6	0.24369416
202	0xbd83665e	-0.06416009
203	0x3eb7656b	0.35819563
204	0x3d25d896	0.040489756
205	0xbe269d61	-0.16270973
206	0x3e4349b1	0.1907108
207	0xbd9583b4	-0.07300511
208	0xbea09109	-0.31360653
209	0xbd362109	-0.0444651
210	0xbe1baf9f	-0.15203713
211	0xbcdea2a2	-0.027177159
212	0x3ecbf244	0.39833272
213	0xbea4142d	-0.32046643
214	0x3e4c7608	0.199669
215	0x3ea53013	0.3226324
216	0x3e43ebd6	0.19132933
217	0xbe42d242	-0.1902552
218	0xbe350bef	-0.17680334
219	0x3ea0d8b9	0.31415346
220	0xbdc1e06a	-0.09466632
221	0x3d2714ae	0.040791206
222	0x3ce75e24	0.028243132
223	0x3e7f3b8f	0.24925064
224	0xbe31a94c	-0.17349738
225	0xbdf37874	-0.11888209
226	0x3eacd30e	0.33754772
227	0x3d99595b	0.07487746
228	0xbd45c540	-0.048283815
229	0x3e0a0919	0.13480033
230	0x3d8c4745	0.06849531
231	0x3e90fc35	0.2831742
232	0x3e7a75b8	0.24458969
233	0xbc1eed09	-0.009700068
234	0xbd4d7081	-0.05015612
235	0xbe06aebf	-0.13152598
236	0xbe96e6f9	-0.29473093
237	0x3e82386c	0.2543367
238	0xba50d0d8	-0.00079656905
239	0xbe8e1778	-0.2775228
240	0xbea1caec	-0.3160013
241	0x3e248fc6	0.1607047
242	0x3e07f545	0.13277157
243	0xbd63df65	-0.055632968
244	0xbe8329dc	-0.25617874
245	0xbe1844bd	-0.14869972
246	0x3ca787c1	0.020450475
247	0xbceb4fb4	-0.028724529
248	0x3e7cf86d	0.24704142
249	0x3d79bc85	0.0609708
250	0x3df82305	0.121160544
251	0xbdc7ff2c	-0.09765467
252	0x3d60d3f1	0.054889623
253	0xbeb6575c	-0.35613525
254	0xbe3f9146	-0.18707761
255	0x3d65b3e4	0.05607976

network_body._body_endoder.seq_layers.0.bias f4 [256]
0	0xbdf60bf0	-0.12013996
1	0x3d8caf93	0.068694256
2	0xbd3e0f84	-0.046401516
3	0xbdf3cb44	-0.11904004
4	0x3e129ca1	0.14317562
5	0xbe0f6ed7	-0.14007126
6	0xbe53fcf6	-0.20701966
7	0xbe2d7485	-0.1693898
8	0x3d6900b0	0.05688542
9	0xbd3d55a4	-0.04622425
10	0x3e4a3358	0.19746149
11	0xbd70670d	-0.058692027
12	0xbb85eb95	-0.0040869215
13	0xbd66dba9	-0.056361828
14	0x3d7e07ea	0.062019266
15	0x3d28ff88	0.04125932
16	0x3e6e29c6	0.23258123
17	0xbcaeba36	-0.021329027
18	0x3d808bf3	0.06276693
19	0x3c986346	0.018602025
20	0xbe150610	-0.14553094
21	0xbd206add	-0.039164413
22	0xbe2a42e4	-0.16627079
23	0x3ca6524a	0.02030291
24	0xbe431ca9	-0.19053902
25	0xbe1c5f65	-0.15270765
26	0x3e374208	0.17896283
27	0x3a718879	0.00092137564
28	0xbb272631	-0.0025504942
29	0x3dc5f527	0.096659
30	0xbe07db08	-0.13267148
31	0x3dc06cc0	0.093957424
32	0xbe48d660	-0.19613028
33	0x3e2df9f4	0.16989881
34	0xbddc25bf	-0.10749387
35	0xbd64ccc9	-0.05585936
36	0x3d8ade2d	0.06780658
37	0xbd9ebe48	-0.07751137
38	0x3dd0b56c	0.101908535
39	0x3b2a0a4c	0.0025946079
40	0xbd25d6cf	-0.04048806
41	0x3de73942	0.11290218
42	0xbd12ee56	-0.035871826
43	0xbe716e66	-0.2357727
44	0xbded9a3b	-0.11601683
45	0xbd8ce1b9	-0.06878991
46	0x3d2b786d	0.041862894
47	0x3e8e2241	0.2776051
48	0xbea0f637	-0.31437847
49	0x3d70c8d3	0.05878527
50	0x3d7d7d37	0.061886992
51	0xbd63eb44	-0.05564429
52	0x3ceaa9dc	0.028645448
53	0x3d11ddd4	0.035611942
54	0x3e137d9a	0.14403382
55	0x3db38206	0.087650344
56	0xbc2b38e8	-0.010450579
57	0x3d3edc84	0.04659702
58	0xbe9980b9	-0.2998102
59	0xbe1b5c76	-0.1517199
60	0x3e066f4e	0.13128397
61	0xbe421fa3	-0.18957381
62	0x3ce3e857	0.02782075
63	0xbe1182d5	-0.14210065
64	0x3d5a8a13	0.053354334
65	0xbe3619b5	-0.17783244
66	0x3dea9f56	0.11456172
67	0x3e34b369	0.17646565
68	0xbd599576	-0.053121053
69	0x3df6d89a	0.12053032
70	0x3d1eab74	0.03873773
71	0xbe44d173	-0.19220524
72	0x3dd21053	0.1025702
73	0xbdf370e6	-0.11886768
74	0xbeab9bf0	-0.33517408
75	0xbdf4e469	-0.11957628
76	0x3e06536b	0.13117759
77	0xbd0a3278	-0.033739537
78	0xbe3cefd3	-0.1845086
79	0xbc99443b	-0.018709293
80	0xbdb9049a	-0.09034081
81	0xbe5d5a74	-0.21616536
82	0xbd09371b	-0.03349982
83	0xbd3e2a1b	-0.046426874
84	0xbe14c68a	-0.14528862
85	0x3d5482c5	0.051882524
86	0xbdeb12ad	-0.114781715
87	0x3e5de4ef	0.21669362
88	0xbe64e004	-0.2235108
89	0x3d421396	0.04738196
90	0xbdfc5589	-0.12321002
91	0xbd3c7c23	-0.046016824
92	0x3e8f5d95	0.28001085
93	0x3e8630c0	0.26209068
94	0xbdf8f5e3	-0.12156274
95	0xbe379047	-0.17926131
96	0x3d2a0e7d	0.041517723
97	0x3d4f7dfc	0.050657257
98	0x3d3945b0	0.045232475
99	0x3d34a5ca	0.04410342
100	0x3d445017	0.047927942
101	0xbcf45b2d	-0.029828632
102	0xbd87e7fb	-0.06636044
103	0x3e5110bb	0.20416538
104	0xbe3072fa	-0.1723136
105	0xbe8362a0	-0.25661182
106	0xbd74f960	-0.059808135
107	0x3e0c5471	0.13704087
108	0x3e454e8d	0.19268246
109	0x3d39124a	0.045183457
110	0xbdb230c5	-0.08700708
111	0x3e2fdd07	0.17174159
112	0x3ced1709	0.028941648
113	0xbe0ad2f2	-0.13557032
114	0x3de74220	0.11291909
115	0xbdd5cc80	-0.10439396
116	0xbcf854de	-0.030313905
117	0x3d868d85	0.065699615
118	0xbd7d99b4	-0.06191416
119	0x3df46855	0.11933962
120	0xbc0a1056	-0.008426746
121	0x3d201f11	0.039092127
122	0x3cc4c313	0.0240188
123	0x3d04ca9b	0.032419782
124	0x3dd0a1d7	0.101871185
125	0x3be2f895	0.006926606
126	0x3cb8468e	0.02249458
127	0x3e985bec	0.2975763
128	0x3e67fe8e	0.22655699
129	0x3d870bf7	0.06594079
130	0x3e73bb3d	0.23801894
131	0x3d8fa542	0.07013942
132	0xbe8dd842	-0.27704054
133	0x3d6002a7	0.05469003
134	0x3dc5a321	0.09650255
135	0xbd55d80f	-0.052208003
136	0xbe23faa3	-0.16013579
137	0xbe750910	-0.23929238
138	0x3e6941c6	0.22778997
139	0xbdb26870	-0.08711326
140	0xbdbc5f2b	-0.09197839
141	0xbdbdb179	-0.09262366
142	0xbe2cbd00	-0.16868973
143	0xbe6834c1	-0.22676374
144	0xbd622cb9	-0.055218432
145	0x3e2781de	0.16358134
146	0xbcaa18f8	-0.02076386
147	0xbc9bb7b6	-0.019008499
148	0xbd427f2b	-0.047484558
149	0xbd5f2c1a	-0.054485418
150	0xbcc1af0c	-0.02364304
151	0x3c216b3e	0.009852229
152	0x3dac128a	0.084019735
153	0xbcedd4f2	-0.029032204
154	0xbe5e5d29	-0.21715225
155	0x3d16b376	0.03679224
156	0x3d2345ea	0.039861597
157	0xbd18ac2a	-0.037273563
158	0xbd340d0f	-0.043957766
159	0x3dfdf4b1	0.12400187
160	0xbe7edad9	-0.24888171
161	0xbe896865	-0.2683746
162	0xbe688f80	-0.22710991
163	0xba6b45db	-0.0008974948
164	0x3df6eed4	0.120572716
165	0xbe7d7ad2	-0.24753883
166	0x3e40a3b7	0.18812452
167	0xbd4bbfc0	-0.049743414
168	0x3d5466aa	0.05185572
169	0xbe269ab7	-0.16269957
170	0xbe428b18	-0.18998373
171	0xbce7875f	-0.028262792
172	0x3e703aee	0.2345998
173	0xbc60d781	-0.013723255
174	0xbdfcaced	-0.123376705
175	0xbe24038b	-0.16016977
176	0xbdec1751	-0.11527885
177	0x3d893c40	0.06700945
178	0x3e5c3925	0.21506174
179	0xbe21fd38	-0.15819252
180	0x3ddeed77	0.108851366
181	0x3d8b4425	0.06800107
182	0xbd7c93b1	-0.061664287
183	0xbe096cc0	-0.13420391
184	0xbd695183	-0.0569625
185	0xbd9d275d	-0.076735236
186	0xbe829f45	-0.25512138
187	0xbdf7a51e	-0.120920405
188	0xbd80c5a1	-0.06287695
189	0x3d9bcca5	0.07607392
190	0x3c48dd24	0.012259755
191	0xbd9b2feb	-0.07577499
192	0x3e5c2877	0.21499811
193	0xbe1c3e2b	-0.1525809
194	0x3e088707	0.13332759
195	0xbd1840d3	-0.037171196
196	0x3e697a7e	0.22800633
197	0x3cfe30de	0.031029161
198	0xbdf5d73c	-0.12003943
199	0xbe1b14aa	-0.15144601
200	0xbda2f69c	-0.07957193
201	0xbd9cd88b	-0.0765849
202	0x3d066082	0.03280688
203	0xbe2090a8	-0.15680182
204	0x3e06a4aa	0.13148752
205	0x3d9cf545	0.07663969
206	0xbdc23c31	-0.09484137
207	0x3e77d1d1	0.24201132
208	0xbaead56f	-0.0017916391
209	0x3d488a1a	0.04895983
210	0x3dc96299	0.09833259
211	0x3e68dcae	0.22740433
212	0x3bc06da3	0.0058724447
213	0x3e021adf	0.12705563
214	0xbc2e008d	-0.0106202485
215	0xbe100a95	-0.14066537
216	0xbc268390	-0.010163203
217	0xbd978b00	-0.07399559
218	0xbd900f92	-0.0703422
219	0xbe2b04e5	-0.16701086
220	0x3dcfa552	0.10138954
221	0xbd255ec4	-0.04037358
222	0xbb9c9237	-0.0047781724
223	0xbe891823	-0.26776227
224	0x3d84688f	0.064652555
225	0x3e6b20b6	0.22961697
226	0x3d569864	0.052391425
227	0xbdfa627b	-0.12225815
228	0xbe0d2492	-0.13783482
229	0x3c589660	0.013219446
230	0xbda64b93	-0.081198834
231	0x3df6dcd9	0.12053842
232	0xbe31de86	-0.17370042
233	0x3dd82f67	0.10555916
234	0xbe8a6c10	-0.2703557
235	0xbe05f0c4	-0.13080126
236	0x3e32107d	0.17389102
237	0xbdaf7bcf	-0.085685365
238	0xbd43b60a	-0.047781028
239	0x3eb88c4f	0.36044547
240	0xbe502fc1	-0.20330717
241	0x3cc11e69	0.023574071
242	0xbe39f26d	-0.18158884
243	0x3ead6f75	0.33874097
244	0xbe38208a	-0.17981163
245	0xbdc3a65a	-0.095532134
246	0xbcdbfd01	-0.02685404
247	0xbcd7be19	-0.026335763
248	0x3b44f938	0.0030055773
249	0xbd3a48dd	-0.045479644
250	0xbd06aa72	-0.032877393
251	0xbd1d90e6	-0.038468264
252	0xbe5dbd29	-0.2165419
253	0xbc34bcbc	-0.011031326
254	0x3e1d8cc9	0.15385737
255	0x3cbaa07e	0.022781607

network_body._body_endoder.seq_layers.2.weight f4 [256, 256]
0	0x3c9527a5	0.01820738
1	0xbdf603e5	-0.120124616
2	0x3e47c9e3	0.19510607
3	0xbd5f816c	-0.054566786
4	0x3e063f77	0.13110147
5	0xbe4ba2b9	-0.19886293
6	0x3d9a6478	0.07538694
7	0x3cdcd778	0.026958212
8	0x3e130185	0.14356048
9	0xbe454812	-0.19265774
10	0xbc01b90c	-0.007917654
11	0x3d184869	0.03717843
12	0x3e0dc5c8	0.13844979
13	0xbd8a9288	-0.0676623
14	0xbc2b7776	-0.010465493
15	0xbdb29738	-0.08720249
16	0xbd860f11	-0.065458424
17	0x3b97e7c3	0.0046357824
18	0x3ea8dc4a	0.32980567
19	0xbe20e8f4	-0.15713865
20	0xbe8dae07	-0.27671835
21	0xbeb21bf3	-0.3478695
22	0xbd812b1f	-0.06307053
23	0xbe2f9085	-0.17144974
24	0x3c15380b	0.0091076
25	0xbe13f089	-0.14447226
26	0xbce2b6c2	-0.027675036
27	0xbe0246e0	-0.12722349
28	0xbe4d3b3d	-0.20042129
29	0xbd5e958f	-0.05434185
30	0xbcb1d70d	-0.02170899
31	0x3d1a58c0	0.037682295
32	0x3d5af738	0.053458422
33	0xbe2671e2	-0.1625438
34	0x3c998a10	0.018742591
35	0xbea9baf0	-0.33150434
36	0x3d0a7778	0.03380534
37	0xbc9a7358	-0.018853828
38	0xbcba2d8a	-0.022726793
39	0xbd1d4243	-0.03839327
40	0x3e3aaeff	0.18230818
41	0x3d771062	0.06031836
42	0xbe4d3018	-0.20037878
43	0xbd860e3d	-0.065456845
44	0xbe619b7b	-0.22031967
45	0xbf03e3fc	-0.5151975
46	0x3dfc8026	0.1232913
47	0xbe6b8b03	-0.23002248
48	0xbde94190	-0.11389458
49	0x3c466ebf	0.012111365
50	0xbd8f1b7c	-0.06987664
51	0xbe203c87	-0.1564809
52	0x3d8d4581	0.068980224
53	0x3d1c7fa3	0.03820766
54	0x3e132701	0.14370348
55	0xbe09d926	-0.13461742
56	0xbb18afd4	-0.002329816
57	0x374071b1	1.1470563e-05
58	0xbd65a54c	-0.056065843
59	0x3e276940	0.16348743
60	0x3d3c497e	0.045968525
61	0x3e357da9	0.17723717
62	0x3e8d3359	0.27578238
63	0xbe288631	-0.1645744
64	0xbeaad0eb	-0.33362517
65	0xbe6984f4	-0.22804624
66	0xbde0f263	-0.109837316
67	0x3e33ee96	0.17571482
68	0xbe050887	-0.12991534
69	0xbe3c4b33	-0.18388061
70	0xbd04cc25	-0.03242125
71	0x3da5ecb0	0.08101785
72	0x3db861ff	0.09003066
73	0x3d9b22df	0.075750105
74	0x3de7304b	0.11288508
75	0xbcfe83ef	-0.03106877
76	0x3df91f2b	0.12164148
77	0x3e2f82da	0.1713976
78	0x3cb6662b	0.022265514
79	0xbe72a808	-0.23696911
80	0x3d8c3786	0.06846528
81	0xbc426127	-0.011863983
82	0x3d9bada9	0.076014824
83	0xbcc431ef	-0.023949591
84	0x3e3e1d69	0.18565907
85	0xbe54e543	-0.20790581
86	0xbda9818d	-0.08276663
87	0x3e07589b	0.13217394
88	0x3e3b4f7d	0.18292041
89	0xbe239cc0	-0.15977764
90	0xbdeef586	-0.11667924
91	0x3e155bce	0.14585802
92	0xbddd4e1a	-0.10805912
93	0xbe2a31ef	-0.1662061
94	0x3dcfaed0	0.10140765
95	0x3c02288e	0.007944239
96	0xbd75766e	-0.059927396
97	0xbd4bd27e	-0.049761288
98	0xbdd44b86	-0.103659675
99	0xbea817da	-0.32830697
100	0xbec7cf23	-0.3902522
101	0x3e163da2	0.14671949
102	0xbee68635	-0.45024267
103	0xbd435a5e	-0.047693603
104	0xbe5e47be	-0.21707055
105	0xbdd548a0	-0.10414243
106	0xbd5f7397	-0.054553594
107	0x3d27cc39	0.040966246
108	0x3d80c6a6	0.06287889
109	0xbd804ac1	-0.06264258
110	0x3da4fbfa	0.08055873
111	0xbd220a3e	-0.03956055
112	0xbdb45171	-0.08804596
113	0x3928db2f	0.00016103381
114	0x3e74d95c	0.23911041
115	0x3dbce916	0.09224145
116	0xbed338cc	-0.4125427
117	0xbdab4ba8	-0.0836404
118	0xbf26fe57	-0.6523184
119	0xbea8102a	-0.32824832
120	0xbdd5e17d	-0.10443399
121	0xbd3432aa	-0.04399363
122	0x3e45ab07	0.19303523
123	0xbe523b41	-0.20530416
124	0xbd377926	-0.04479327
125	0xbbfc5668	-0.00770073
126	0xbd8eb182	-0.06967451
127	0x3d13b580	0.036061764
128	0xbe168ada	-0.14701405
129	0xbdb273da	-0.08713503
130	0xbd5092f3	-0.05092139
131	0xbe633856	-0.22189459
132	0x3be7a95c	0.0070697498
133	0x3dde6c4e	0.10860501
134	0xbe4f667e	-0.20253941
135	0xbd9369d1	-0.07197917
136	0xbe8a2fab	-0.26989493
137	0x3d7fea93	0.062479567
138	0xbd2fc532	-0.04291267
139	0xbe237cf3	-0.15965633
140	0x3dff728b	0.12473019
141	0xbd8d815e	-0.069094405
142	0x3e20869c	0.1567635
143	0x3c88d5f1	0.016703578
144	0xbc3f57fa	-0.01167869
145	0xbef82f27	-0.48473474
146	0xbe140c22	-0.14457753
147	0xbe90244c	-0.28152692
148	0xbe23fffb	-0.16015618
149	0xbe826ce0	-0.2547369
150	0xbdf592d3	-0.11990895
151	0x3d78dfc1	0.060760263
152	0xbb24c85c	-0.0025143838
153	0xbbdcae19	-0.0067346212
154	0xbe138976	-0.14407906
155	0xbe64b542	-0.2233477
156	0xbea1572c	-0.3151182
157	0xbe0563ae	-0.13026306
158	0xbc454377	-0.012040011
159	0xbe9e6f88	-0.30944467
160	0x3d9ba5a9	0.075999565
161	0x3e1e558f	0.15462326
162	0x3e1cbc6d	0.15306254
163	0xbe748bcc	-0.23881453
164	0x3e8cb7c4	0.27483952
165	0xbe773fcb	-0.24145429
166	0xbde7104d	-0.11282406
167	0xbeab375b	-0.3344067
168	0xbed10530	-0.4082427
169	0x3e1a421e	0.15064284
170	0x3e051958	0.12997949
171	0xbe621471	-0.2207811
172	0xbd9a6b96	-0.07540052
173	0xbc14cd24	-0.009082112
174	0xbe122868	-0.14273226
175	0x3ec18043	0.37793168
176	0x3e052bd9	0.13005008
177	0xbbce058e	-0.0062872833
178	0xbd3b7fdd	-0.045776237
179	0x3e68a5f6	0.22719559
180	0x3b378862	0.0028004874
181	0x3b0f515b	0.002186856
182	0x3d44a3da	0.048007824
183	0x3cf70779	0.03015493
184	0xbea5c885	-0.32379547
185	0x3d9b589c	0.0758526
186	0xbd384af8	-0.04499337
187	0x3d565b5c	0.05233322
188	0x3ead3bce	0.3383469
189	0xbeb15822	-0.34637552
190	0x3d4ba822	0.04972089
191	0x3d84d9b0	0.06486833
192	0xbe11fa77	-0.14255701
193	0x3c3b089b	0.011415626
194	0xbe8644da	-0.26224405
195	0x3d153b40	0.03643346
196	0x3e750380	0.23927116
197	0x3d838a02	0.06422807
198	0x3da024c6	0.07819514
199	0xbe8b3bb7	-0.27193996
200	0xbd770ad9	-0.06031308
201	0xbdb2b94c	-0.08726749
202	0xbda1cf1b	-0.0790083
203	0x3ddc18b8	0.10746902
204	0xbda722af	-0.08160912
205	0xbed50bde	-0.41610616
206	0x3e2e3d39	0.17015542
207	0x3dba04d6	0.09082954
208	0xbdcdf650	-0.10056746
209	0x3e867ccc	0.26267087
210	0xbeaec1c3	-0.34132203
211	0xbd1f3597	-0.038869467
212	0xbcad7192	-0.021172319
213	0xbcbc2937	-0.022968872
214	0xbdbcfa65	-0.092274465
215	0x3e91da94	0.28487074
216	0xbe7393d9	-0.23786868
217	0xbd414d3f	-0.04719281
218	0xbc791807	-0.0152034825
219	0x3e64f045	0.2235728
220	0x3dc1c30a	0.09461029
221	0x3b92efae	0.0044841385
222	0xbe02bc11	-0.12767054
223	0xbe278374	-0.16358739
224	0x3dd62cc8	0.1045776
225	0xbabf858c	-0.0014611944
226	0x3e3b408c	0.18286341
227	0xbd9f29e7	-0.07771664
228	0xbe0397d8	-0.12850893
229	0xbe649ddf	-0.22325848
230	0xbe9dfb84	-0.30855954
231	0x3e3e1e9c	0.18566364
232	0xbe81adbe	-0.25327867
233	0x3d1adffc	0.037811264
234	0x3e64f749	0.22359957
235	0x3e611a89	0.21982779
236	0xbe4d88dc	-0.20071739
237	0x3da14710	0.07874882
238	0xbe587045	-0.21136577
239	0xbb049bcc	-0.0020234464
240	0x3d3589c6	0.044320844
241	0x3e65006f	0.22363447
242	0x3e0c503c	0.13702482
243	0x3e15af37	0.1461762
244	0xbdfdbf01	-0.12389947
245	0xbda534f9	-0.08066744
246	0x3da413d2	0.08011593
247	0x3e57c809	0.21072401
248	0xbdd9c549	-0.10633332
249	0x3d76661a	0.060155965
250	0x3d26f225	0.04075827
251	0xbdddb8fb	-0.10826298
252	0xbb24962f	-0.002511393
253	0xbdf9c1ee	-0.12195192
254	0x3d8ea99b	0.069659434
255	0xbe106869	-0.1410233

network_body._body_endoder.seq_layers.2.bias f4 [256]
0	0xbe45b9db	-0.1930918
1	0xbdbd46b7	-0.092420034
2	0xbe850252	-0.25978333
3	0xbe5815de	-0.21102092
4	0xbd2478c7	-0.040154245
5	0xbe85bc33	-0.26120147
6	0xbe1d4e8d	-0.15361996
7	0xbd4fbb64	-0.05071582
8	0xbd91322c	-0.07089648
9	0xbedc3aa4	-0.4301349
10	0xbe56574d	-0.2093174
11	0xbe2afa49	-0.16697039
12	0xbe6dba55	-0.23215611
13	0xbe5dbf4d	-0.21655007
14	0xbee09253	-0.43861637
15	0xbe166608	-0.1468736
16	0xbe9cd97f	-0.30634686
17	0xbe575eb0	-0.21032214
18	0xbe54b204	-0.20771033
19	0xbe81fdda	-0.25388986
20	0xbd98dd64	-0.07464102
21	0xbd3a2aaf	-0.045450862
22	0xbeaf0b15	-0.34188142
23	0xbe846064	-0.2585479
24	0xbe5a6e34	-0.21331102
25	0xbe986b11	-0.29769185
26	0xbdf36cdf	-0.11886
27	0xbed58049	-0.41699436
28	0xbe88912a	-0.2667325
29	0xbe7d19b1	-0.24716832
30	0xbe1a26ca	-0.1505386
31	0xbe0c6125	-0.13708933
32	0xbea5dcad	-0.32394925
33	0xbe687b3f	-0.22703265
34	0xbdc6d7b6	-0.09709112
35	0x3d6788d1	0.056526963
36	0xbeb2c9ce	-0.3491959
37	0xbe4a65b5	-0.1976536
38	0xbe073dd6	-0.13207182
39	0xbe83c23e	-0.25734133
40	0xbeb11e03	-0.3459321
41	0xbe8328dd	-0.25617114
42	0xbe0137b4	-0.12618905
43	0xbe719258	-0.23590982
44	0xbe2fbfc6	-0.17163
45	0xbe8607b8	-0.26177764
46	0xbe146673	-0.14492206
47	0xbe187730	-0.14889216
48	0x3abe9b53	0.001454214
49	0xbd9cdf06	-0.07659726
50	0xbdb73b84	-0.089468986
51	0xbe999c2a	-0.30001956
52	0xbdf9a9b9	-0.12190575
53	0xbe04b139	-0.1295823
54	0xbe231a53	-0.1592801
55	0xbab0af33	-0.0013479948
56	0xbe46e57c	-0.19423479
57	0xbec8cb7b	-0.39217743
58	0xbe5b5092	-0.21417454
59	0xbe29fede	-0.1660113
60	0xbe42ac13	-0.19010954
61	0xbee80b0c	-0.45320928
62	0xbed9e687	-0.4255869
63	0xbe901f9c	-0.28149116
64	0xbe0eb1a8	-0.13934958
65	0xbd84a11a	-0.0647604
66	0x3c5e6a98	0.013575219
67	0xbe297262	-0.1654754
68	0xbdf88cc3	-0.12136223
69	0xbeb7f88f	-0.35931823
70	0x3db21a8f	0.08696472
71	0xbf079f84	-0.52977777
72	0xbf0dffab	-0.55468243
73	0xbeaef748	-0.34173036
74	0xbe970cf7	-0.2950208
75	0xbd13f5cb	-0.03612308
76	0xbe67184b	-0.22567861
77	0xbe223820	-0.15841722
78	0xbe724aab	-0.23661296
79	0xbf0839fe	-0.5321349
80	0xbe8b8de0	-0.2725668
81	0xbe02bd9d	-0.12767644
82	0xbde6d5b9	-0.11271233
83	0xbcf599c9	-0.029980557
84	0xbdea6517	-0.114450626
85	0xbdaff028	-0.08590728
86	0xbf00b9a3	-0.5028326
87	0xbcde2e89	-0.027121799
88	0xbe149ff9	-0.1451415
89	0xbd821a74	-0.06352702
90	0xbe2d7747	-0.16940032
91	0xbda576be	-0.08079289
92	0xbdb54a37	-0.08852046
93	0xbe81f79c	-0.25384223
94	0xbe38b300	-0.18037033
95	0xbbe7d0f0	-0.007074468
96	0xbe1f3364	-0.15546948
97	0xbec34418	-0.3813789
98	0xbe05a95f	-0.13052891
99	0xbe3f8771	-0.1870401
100	0xbdbf8c0b	-0.09352883
101	0xbe8fa765	-0.280574
102	0xbd997495	-0.074929394
103	0xbe415d4f	-0.1888325
104	0xbe68d6f3	-0.22738247
105	0xbe2ac247	-0.16675673
106	0xbcac6517	-0.021044297
107	0xbe09d84c	-0.13461417
108	0xbe61274e	-0.2198765
109	0xbd57faec	-0.052729532
110	0xbe352e93	-0.17693548
111	0xbdc75cc5	-0.09734491
112	0xbe0cf646	-0.13765821
113	0xbe3a4c0a	-0.18193069
114	0xbe3dcf4a	-0.18536106
115	0xbe93e7ed	-0.28887883
116	0xbe451736	-0.19247136
117	0xbdd500f4	-0.104005724
118	0xbe089343	-0.13337426
119	0xbe159b16	-0.14609942
120	0xbe466f01	-0.19378282
121	0xbc7717d5	-0.015081366
122	0xbea6d078	-0.32580924
123	0xbeaad03d	-0.33361998
124	0xbe5502d5	-0.20801862
125	0xbec6369d	-0.38713542
126	0xbe6c7c29	-0.23094238
127	0xbf049c6c	-0.5180118
128	0xbe2bb2f7	-0.16767488
129	0xbe907a67	-0.28218386
130	0xbe746b20	-0.2386899
131	0xbe8820cb	-0.2658752
132	0xbdc9b99f	-0.098498575
133	0xbe2cba6f	-0.16867994
134	0xbe906e93	-0.2820936
135	0xbe5b64ec	-0.21425217
136	0xbd82128d	-0.063511945
137	0xbe714484	-0.23561293
138	0xbeb08c04	-0.34481823
139	0xbebca046	-0.3684103
140	0x3da9a070	0.08282554
141	0xbe9b825c	-0.30372894
142	0xbe2831a1	-0.16425182
143	0xbe475f9c	-0.19470066
144	0xbe0fc7a0	-0.14040995
145	0xbd2386f2	-0.039923616
146	0xbe5ab27e	-0.21357152
147	0xbe15c561	-0.14626075
148	0xbe644973	-0.22293644
149	0xbef290e5	-0.4737617
150	0xbe2dadc5	-0.16960819
151	0xbec87164	-0.3914901
152	0xbed75974	-0.42060435
153	0xbd938208	-0.07202536
154	0xbdf2bf71	-0.11852921
155	0xbd07f67c	-0.03319405
156	0xbe1469dd	-0.14493509
157	0xbcfe2901	-0.031025412
158	0xbdac7f18	-0.08422679
159	0xbdb757e4	-0.08952311
160	0xbd99d5e1	-0.07511497
161	0xbeab735b	-0.33486447
162	0xbe8308ac	-0.25592554
163	0xbe356340	-0.17713642
164	0xbe1f4691	-0.15554263
165	0xbe238de3	-0.15972094
166	0xbe1e160a	-0.15438095
167	0xbe691dd4	-0.22765285
168	0xbe82ca32	-0.25544888
169	0xbe7430f7	-0.23846804
170	0xbe9de5b8	-0.30839324
171	0xbe4579d9	-0.19284762
172	0xbe87b475	-0.26504865
173	0xbe486051	-0.19567992
174	0xbe755ef4	-0.23962003
175	0xbe6cb98e	-0.23117658
176	0xbebcd0f2	-0.36878163
177	0xbe810c65	-0.2520477
178	0xbe236e04	-0.15959936
179	0xbec3b4b0	-0.3822379
180	0xbe072987	-0.13199435
181	0xbe7f7be1	-0.249496
182	0xbe07362c	-0.13204259
183	0xbe930483	-0.2871438
184	0xbe902be7	-0.28158495
185	0xbcc249d8	-0.023716852
186	0xbe8abee7	-0.27098772
187	0xbd8cb4d8	-0.06870431
188	0xbd9692d9	-0.07352228
189	0xbea5c5f6	-0.32377595
190	0xbdf8b279	-0.12143416
191	0xbe0845f7	-0.1330794
192	0xbe9bd676	-0.30437058
193	0xbe425fde	-0.18981883
194	0xbdce5e6e	-0.10076605
195	0xbe93afb5	-0.2884499
196	0xbe383801	-0.17990114
197	0xbe8fb003	-0.28063974
198	0xbe44a53b	-0.19203655
199	0xbe8d6142	-0.27613264
200	0xbde4252a	-0.11139901
201	0xbddf3482	-0.10898687
202	0xbea1bc60	-0.3158903
203	0xbe94fae5	-0.29097667
204	0xbe742df7	-0.23845659
205	0xbecc1f5b	-0.39867672
206	0xbd558172	-0.0521254
207	0xbe7bb38e	-0.24580213
208	0xbe6a197d	-0.22861286
209	0xbe9d5800	-0.307312
210	0xbe200ac0	-0.15629101
211	0xbea48a90	-0.32136965
212	0xbe3b0693	-0.18264227
213	0xbdaba868	-0.0838173
214	0xbe2ffb54	-0.17185718
215	0xbeb07b5b	-0.34469113
216	0xbec1f516	-0.37882298
217	0xbf0064c2	-0.50153744
218	0xbdffa8d9	-0.12483377
219	0xbe862fd7	-0.26208374
220	0xbe1afc1a	-0.15135232
221	0xbe217059	-0.15765513
222	0xbe2dec6f	-0.16984724
223	0xbe6245b7	-0.22096907
224	0xbe8fe211	-0.28102162
225	0xbf095dfc	-0.53659034
226	0xbe8a5223	-0.2701579
227	0xbe8ad35f	-0.27114388
228	0xbe802c21	-0.25033668
229	0xbdf356e7	-0.1188181
230	0xbec8bdd5	-0.3920733
231	0xbe76b55b	-0.24092619
232	0xbe79ebb4	-0.2440632
233	0xbe321f02	-0.17394641
234	0x3cfb47a6	0.030673813
235	0xbddaba59	-0.10680074
236	0xbdd20193	-0.102542065
237	0xbf01330c	-0.50468516
238	0xbe5c2f9f	-0.21502541
239	0xbe2bc7f7	-0.167755
240	0xbe3a1be0	-0.18174696
241	0xbe5f04ee	-0.21779224
242	0xbe7db124	-0.24774605
243	0xbe994848	-0.2993796
244	0xbe3c69e1	-0.18399765
245	0xbe289a67	-0.1646515
246	0xbe991bb2	-0.29903942
247	0xbe905bba	-0.28194982
248	0xbea0a5cc	-0.31376493
249	0xbe48bb4e	-0.19602701
250	0xbe36479c	-0.17800754
251	0x3c6aaa18	0.01432278
252	0xbe74fb9d	-0.23924108
253	0xbe28cdb7	-0.16484724
254	0xbe71ada6	-0.23601398
255	0xbe52e93a	-0.20596781

action_model._continuous_distribution.log_sigma f4 [1, 2]
0	0xbf6782a3	-0.9043371
1	0xbf5bed6f	-0.8590917

action_model._continuous_distribution.mu.weight f4 [2, 256]
0	0x3db598bb	0.08867022
1	0xbd448aaa	-0.047983803
2	0xbdb89c08	-0.090141356
3	0x3c8d51ce	0.017250922
4	0x3df0f0e1	0.11764694
5	0x3d5dedd2	0.05418188
6	0x3e2c65cb	0.16835706
7	0x3d34b087	0.044113662
8	0xbc39518d	-0.011310947
9	0x3c9632a8	0.018334702
10	0x3de32067	0.11090165
11	0xbdae349c	-0.08506128
12	0x3cc13ac1	0.023587586
13	0xbd8990d4	-0.06717077
14	0x3c47c6de	0.01219341
15	0x3e129a40	0.14316654
16	0x3bfeaec2	0.0077722976
17	0xbde2f70f	-0.11082279
18	0x3db07321	0.08615709
19	0x3ca0c03b	0.019622913
20	0xbe3af695	-0.18258126
21	0x3cef4229	0.029206352
22	0x3d0a6c92	0.033794947
23	0x3d54a3aa	0.051913895
24	0xbcce8fdd	-0.025215084
25	0xbc5af8d9	-0.013364994
26	0xbdb2b671	-0.08726204
27	0xbd16b1ac	-0.036790535
28	0x3d9009f3	0.07033148
29	0xbd66eb4e	-0.056376748
30	0x3db7245e	0.08942483
31	0xbd2a5027	-0.041580345
32	0xbd1b9643	-0.037985098
33	0xbdbf0be3	-0.09328439
34	0xbc52772b	-0.012845795
35	0x3c240153	0.010010081
36	0x3bfac899	0.0076533076
37	0x3d4609b1	0.048349086
38	0xbdd665a7	-0.104686074
39	0xbdb676b4	-0.089093596
40	0x3d98e577	0.07465642
41	0x3d0ca190	0.034333766
42	0x3dbc038b	0.09180363
43	0xbe03c5b1	-0.12868382
44	0xbe567a34	-0.20945054
45	0xbdfafd41	-0.122553356
46	0x3d08965f	0.03334653
47	0x3e23cc31	0.15995862
48	0xbe0b4f0b	-0.13604371
49	0x3dc39160	0.095492125
50	0xb7cbf4d6	-2.4313496e-05
51	0x3dab54c0	0.08365774
52	0x3cd3806f	0.025818078
53	0xbdec58ba	-0.11540361
54	0x3ce46f0c	0.027884983
55	0xbd86a318	-0.065740764
56	0x3d3cf15a	0.04612861
57	0x3e0011f0	0.12506843
58	0xbced1822	-0.028942171
59	0x3d114e5c	0.03547512
60	0x3d96ec35	0.07369272
61	0x3c8c8ecb	0.017157933
62	0x3d839c7a	0.0642633
63	0xbc054a11	-0.008135335
64	0xbdae2d99	-0.08504791
65	0xbd87e593	-0.06635585
66	0xbd179dd1	-0.03701574
67	0xbe0dff45	-0.13866909
68	0x3d716f86	0.058944248
69	0xbdb35d83	-0.0875807
70	0x3da6a66a	0.0813721
71	0x3dc0d571	0.09415711
72	0x3dc100af	0.094239585
73	0x3d4fe621	0.050756577
74	0xbdc48bfd	-0.09597013
75	0xbd1e816f	-0.038697656
76	0xbd0b49cd	-0.03400593
77	0xbe204ac8	-0.15653527
78	0x3df6116e	0.12015043
79	0x3a8c6859	0.001071225
80	0xbdedd3ce	-0.11612664
81	0xbcba4067	-0.022735788
82	0x3e08e1f4	0.13367444
83	0xbd116c30	-0.035503566
84	0xba906725	-0.0011017068
85	0xbcff4488	-0.031160608
86	0x3d8908af	0.066911094
87	0x3c58a8b9	0.01322382
88	0xbd82ccff	-0.06386756
89	0x3dc29051	0.095001824
90	0x3cde6d76	0.027151804
91	0xbe3717b8	-0.17880142
92	0x3e312d2b	0.17302386
93	0x3da25238	0.07925838
94	0x3cf55292	0.0299466
95	0x3dcbdb6b	0.0995396
96	0x3e113469	0.14180149
97	0x3e2fbb1a	0.17161217
98	0xbdf23443	-0.118263744
99	0xbe6afe78	-0.22948635
100	0x38de2306	0.000105923085
101	0x3c8b5264	0.01700706
102	0xbc4717ba	-0.012151653
103	0x3d8cd1b4	0.06875935
104	0x3c89aca8	0.016805962
105	0xbdf52c8f	-0.119713895
106	0xbdbbc4fa	-0.0916843
107	0xbd879614	-0.06620422
108	0x3cbcf8bf	0.02306783
109	0x3e00184c	0.12509269
110	0xbb80d601	-0.0039317613
111	0xbbc2bda0	-0.005943015
112	0xbd4c80a4	-0.04992737
113	0x3d2cdfdb	0.042205673
114	0x3d93cd11	0.07216848
115	0xbe0968be	-0.13418862
116	0x3bc36531	0.0059629907
117	0xbe07aa35	-0.13248523
118	0x3c38245b	0.011239137
119	0xbe3b4f80	-0.18292046
120	0x3dd32d48	0.10311371
121	0x3d2b7062	0.041855223
122	0x3cd2a121	0.025711598
123	0xbd7a8530	-0.061162174
124	0xbdff983a	-0.12480207
125	0xbb86907f	-0.0041065807
126	0x3df17db8	0.11791557
127	0x3da6d5d2	0.08146252
128	0x3e023608	0.12715924
129	0x3c53de5a	0.012931431
130	0x3e08d900	0.13364029
131	0xbd96c41f	-0.07361626
132	0x3d0ff932	0.03514976
133	0xbd83bdc4	-0.06432679
134	0x3daa611a	0.08319302
135	0x3d13c109	0.036072765
136	0xbd3b2d9e	-0.0456978
137	0x3e0b4b57	0.13602959
138	0x3e124a40	0.14286137
139	0xbe2e881c	-0.17044109
140	0x3da2733c	0.079321355
141	0xbe106847	-0.14102279
142	0x3df254cd	0.11832581
143	0x3c2e7af5	0.010649432
144	0xbe80ec7d	-0.25180426
145	0x3e0dafa2	0.1383653
146	0x3dcb1c98	0.09917563
147	0xbdd19047	-0.10232597
148	0x3c4517ce	0.012029601
149	0x3b84287f	0.004033148
150	0xbd840958	-0.06447095
151	0x3d150253	0.03637917
152	0xba8338ee	-0.0010011473
153	0xbe2fdf5d	-0.1717505
154	0x3dd0e540	0.10199976
155	0xbd87637b	-0.06610771
156	0x3c104784	0.008806113
157	0x3db45a30	0.088062644
158	0xbd175615	-0.03694733
159	0xbae94b24	-0.0017798883
160	0x3db12a76	0.08650677
161	0x3c713e2b	0.014724295
162	0xbd098e23	-0.033582818
163	0x3ca5924b	0.02021136
164	0xbcffe657	-0.031237764
165	0x3d777db1	0.060422603
166	0xbe08bf15	-0.13354142
167	0x3c73396d	0.014845234
168	0x3d6e5343	0.058184873
169	0x3db36568	0.08759576
170	0x3d12ae7e	0.03581094
171	0xbdb77370	-0.08957565
172	0x3d4082df	0.04699981
173	0xbd4f2b08	-0.050578147
174	0xbbbee47e	-0.0058255782
175	0xbd964b0c	-0.07338533
176	0x3e06d54a	0.13167301
177	0x3d924e12	0.07143797
178	0x3e539805	0.2066346
179	0xbdf95826	-0.12175016
180	0xbe052211	-0.13001277
181	0xbd5f7cd2	-0.054562397
182	0x3d83855c	0.06421921
183	0xbd27106a	-0.040787138
184	0x3d2348b7	0.03986427
185	0xbd17d947	-0.037072446
186	0x3e07fb38	0.13279426
187	0x3de0f781	0.109847076
188	0xbc10f336	-0.0088470485
189	0xbc8a31c4	-0.016869433
190	0x3ddb8c9f	0.10720181
191	0x3dcf2c4a	0.10115869
192	0xbb0b6fae	-0.0021276283
193	0x3dc45fd1	0.09588588
194	0xbd32efa6	-0.043685578
195	0xbdbe82e2	-0.09302308
196	0xbd704ca3	-0.058666836
197	0xbd41b566	-0.047292136
198	0x3c1f5de0	0.009726971
199	0xbe313443	-0.17305093
200	0xbd4a1263	-0.04933394
201	0x3b530c47	0.0032203363
202	0x3d7b352a	0.061329998
203	0xbe06c778	-0.13162029
204	0x3cc5ac18	0.024129912
205	0xbdda905f	-0.10672068
206	0x3d2c58c4	0.04207684
207	0xbcd6730c	-0.026177905
208	0x3dbe42eb	0.09290107
209	0x3c8ad968	0.01694937
210	0xbd3a87e6	-0.04553976
211	0x3d486b27	0.048930313
212	0x3da1cb27	0.07900076
213	0x3d620c85	0.05518772
214	0x3d06130b	0.032733005
215	0xbc899dc1	-0.016798856
216	0x3d8199d5	0.06328169
217	0xbaf77a4f	-0.0018881055
218	0xbdf37756	-0.11887996
219	0xbb34d005	-0.002758981
220	0x3deb8f29	0.11501915
221	0x3d6650cd	0.0562294
222	0xbb8605b3	-0.004090035
223	0x3dcadf86	0.09905915
224	0xbdd139b0	-0.10216081
225	0x3d462c49	0.048382077
226	0x3df5a06f	0.11993491
227	0xbd895217	-0.067051105
228	0xbda677fd	-0.08128355
229	0xbe34e452	-0.17665222
230	0xbc7178cd	-0.014738274
231	0x3df743c3	0.120734714
232	0x3e051726	0.12997112
233	0x3d9e9fb8	0.07745308
234	0xbda2e5c3	-0.0795398
235	0xbe265070	-0.16241622
236	0xbe35108b	-0.17682092
237	0xbce2539f	-0.027627764
238	0x3ce04a24	0.027379103
239	0x3d99240d	0.07477579
240	0x3d422a0e	0.047403388
241	0x3d2f0283	0.042727005
242	0x3df03a16	0.11729829
243	0x3d7ccc7a	0.06171844
244	0x3e06773f	0.13131426
245	0xbdd82fb5	-0.105559744
246	0x3da75884	0.0817118
247	0x3ce13158	0.02748935
248	0x3c8b499f	0.017002879
249	0x3d8a4d19	0.067529865
250	0x3db94c1e	0.09047721
251	0x3dfc0fd2	0.12307705
252	0x3df2ce2d	0.11855731
253	0x3c0cbf9b	0.008590604
254	0x3d9d00f4	0.076661974
255	0xbdfaac03	-0.1223984

action_model._continuous_distribution.mu.bias f4 [2]
0	0xbb932baf	-0.0044912915
1	0x3e015114	0.12628585

onnx::Div_71 f4 [15]
0	0x399c8658	0.00029854733
1	0x3efb3df9	0.4907072
2	0x3efb685e	0.49103063
3	0x3eba1322	0.36342722
4	0x3eb14175	0.34620252
5	0x399c8658	0.00029854733
6	0x3ef9f67c	0.48820865
7	0x3efdb214	0.49549925
8	0x3eb38a7e	0.350666
9	0x3eab640e	0.33474773
10	0x399c8658	0.00029854733
11	0x3efc0c76	0.49228257
12	0x3ef8cafe	0.4859237
13	0x3ebfb008	0.3743899
14	0x3eb65029	0.35608032

onnx::Div_74 f4 [25]
0	0x399c8658	0.00029854733
1	0x3efc6d4c	0.49302137
2	0x3ef897ae	0.48553222
3	0x3dfe2742	0.124098316
4	0x3e456f6a	0.19280782
5	0x399c8658	0.00029854733
6	0x3effffd4	0.4999987
7	0x3efec1ef	0.49757335
8	0x3d8eff4a	0.06982286
9	0x3e2ce7be	0.16885278
10	0x399c8658	0.00029854733
11	0x3ed6a6f5	0.41924253
12	0x3ebc0990	0.36726046
13	0x3d2a80f4	0.041626886
14	0x3e1a1348	0.15046418
15	0x399c8658	0.00029854733
16	0x3ee59584	0.44840634
17	0x3ed69c61	0.41916183
18	0x3d16b84c	0.036796853
19	0x3e07661f	0.1322255
20	0x399c8658	0.00029854733
21	0x3eeadc8a	0.45871383
22	0x3edd0829	0.43170288
23	0x3dacda38	0.084400594
24	0x3e2f169c	0.17098469

onnx::Div_77 f4 [3]
0	0x3eea5abd	0.45772353
1	0x3d08e517	0.033421602
2	0x3f0e9512	0.55696213
